Models-ML/CNA-467_to_243.model (torch, 65895 bytes, 34 tensors)

conv1.weight f4 [8, 1, 3, 3]
-0.05386203 0.3638599 -0.07331278 0.02270481 0.3193892 -0.20490244 -0.28904358 0.11840265
-0.2044665 -0.1657697 0.26812956 0.24654117 -0.19637477 0.11615368 0.06550951 -0.016662128
-0.1795673 0.029403294 0.30139378 0.21831977 -0.22694221 0.07199627 -0.13443096 -0.44924575
-0.017371578 0.09015386 -0.17531219 -0.03989199 -0.044270676 -0.25865084 -0.034818787 0.19728355
0.31460136 0.26382345 -0.358117 0.08348773 0.19660626 -0.23252954 0.053309776 -0.15138373
-0.3424987 0.12129645 -0.05588398 0.32176492 -0.008547114 -0.1651153 -0.14776686 0.036143556
-0.4567833 0.0892783 0.09672502 0.09193946 -0.06760909 0.24654886 0.24695645 0.03699991
0.15936361 -0.31878784 -0.23902352 0.16664323 0.035012543 0.35182464 -0.37109706 -0.08404334
-0.18888904 0.1247703 -0.112644136 0.32533407 -0.25224936 -0.0006507763 0.30573475 -0.09638658
00000000: 6f9e 5cbd d84b ba3e 0325 96bd 70ff b93c
00000010: fb86 a33e f2d1 51be 85fd 93be 177d f23d
00000020: ab5f 51be 88bf 29be 4748 893e 4a75 7c3e
00000030: 7816 49be fbe1 ed3d da29 863d 047f 88bc
00000040: 7ee0 37be 2ddf f03c 4950 9a3e 388f 5f3e
00000050: 8a63 68be c872 933d 45a8 09be 8a03 e6be
00000060: d74e 8ebc 96a2 b83d 0a85 33be c965 23bd
00000070: 2b55 35bd e26d 84be 259e 0ebd b304 4a3e
00000080: 6e13 a13e de13 873e 1d5b b7be 9dfb aa3d
00000090: 2753 493e 391c 6ebe 5a5b 5a3d 5604 1bbe
000000a0: fd5b afbe 466a f83d 9ae6 64bd 5fbe a43e
000000b0: 3209 0cbc fc13 29be 3250 17be 440b 143d
000000c0: 80df e9be 8bd7 b63d c417 c63d c14a bc3d
000000d0: a276 8abd 4e77 7c3e 27e2 7c3e 388d 173d
000000e0: 3730 233e 2938 a3be 95c2 74be 86a4 2a3e
000000f0: 5069 0f3d 5c22 b43e 6f00 bebe ea1e acbd
00000100: 216c 41be 9287 ff3d f8b1 e6bd 3092 a63e
00000110: d426 81be dc98 2aba 4489 9c3e 5466 c5bd

conv1.bias f4 [8]
0.00061693264 0.00029473234 7.592422e-05 -0.0005921733 7.42707e-05 -0.00055929786 0.00068945123 0.00039329243
00000000: a6b9 213a 4e86 9a39 8139 9f38 143c 1bba
00000010: c7c1 9b38 d89d 12ba 4abc 343a d132 ce39

bn1.weight f4 [8]
0.8737291 0.798618 1.014134 0.69093585 1.0362331 0.6806674 0.76200145 0.890345
00000000: b6ac 5f3f 3b72 4c3f 25cf 813f 2ce1 303f
00000010: 49a3 843f 3840 2e3f 8712 433f a6ed 633f

bn1.bias f4 [8]
0.061616477 -0.60317576 -0.03893856 0.4077748 -0.387262 0.15389228 0.37281176 0.34700245
00000000: 8f61 7c3d ba69 1abf 0a7e 1fbd dcc7 d03e
00000010: 3447 c6be f095 1d3e 2fe1 be3e 4eaa b13e

bn1.running_mean f4 [8]
-0.0012075056 -0.019171976 0.037137076 -0.015275681 0.012668261 0.03168648 -0.006075104 -0.0026819585
00000000: 2a45 9eba 8c0e 9dbc 0c1d 183d da46 7abc
00000010: 8a8e 4f3c afc9 013d aa11 c7bb ccc3 2fbb

bn1.running_var f4 [8]
0.006412155 0.01247854 0.033885658 0.0044962354 0.003876209 0.023553615 0.0029377446 0.0023641346
00000000: 0e1d d23b ca72 4c3c b0cb 0a3d 2855 933b
00000010: ff07 7e3b 83f3 c03c 2d87 403b 99ef 1a3b

conv2.weight f4 [16, 8, 3, 3]
-0.19307671 0.035389572 0.04093822 -0.17982246 -0.09393381 -0.122248806 -0.057776142 -0.29171327
-0.17991292 0.1196739 0.07037185 0.10711311 0.16904563 0.10599638 0.007789986 0.056398805
0.04106438 -0.10968843 -0.037235957 0.034522355 0.18829474 0.051348235 -0.025324088 0.070859104
-0.00086177216 -0.06470685 -0.055664934 -0.2914112 -0.040657498 0.110350095 -0.13078135 0.004287171
0.10671475 -0.20039509 -0.18051234 -0.02920393 -0.03906735 -0.014288849 -0.09631025 -0.07316116
-0.074732006 -0.18087807 -0.0029175878 -0.13263652 -0.12765393 -0.055703763 -0.04840695 0.060378905
-0.18433727 0.07696219 -0.10140769 -0.005525026 0.0117802415 -0.15746479 -0.09705785 -0.23912151
-0.19699107 -0.16134948 -0.15357347 -0.058559086 -0.08116236 -0.09059116 -0.005526883 -0.35337043
-0.14576142 -0.08049301 -0.0049527525 -0.027359897 0.0809552 0.14495447 0.13204452 0.045745313
-0.05339254 -0.18589965 -0.009905389 -0.14269406 0.02500916 0.22898254 0.07399221 0.07760623
-0.060559828 0.34229386 0.13294531 0.024616418 -0.038808145 0.056662954 0.2576487 0.00487665
-0.10796196 -0.0156104425 0.33444366 0.11502009 -0.0438126 0.049455673 -0.1947767 -0.19260575
-0.10354813 -0.07906525 -0.17672083 -0.08218144 -0.0379138 0.05748198 -0.059918266 -0.020872883
-0.027681787 0.08369971 -0.07302782 0.0035536836 -0.30301428 -0.014467669 0.10765135 -0.23995613
-0.09204697 0.05531929 -0.096480355 -0.0027082486 0.05569295 -0.0038830908 0.06817223 0.01342377
-0.124613956 -0.19708203 -0.1641169 0.04467316 -0.18586797 -0.12064442 -0.07855551 -0.14049125
-0.12704629 -0.094841845 -0.011790285 -0.014271424 -0.20865813 -0.19466081 -0.082539104 -0.04723465
-0.042986732 -0.18219371 0.0438435 0.045182176 -0.03429168 0.008436698 0.1183654 0.04419247
-0.011298255 0.028587421 0.024888858 -0.18955185 -0.11638388 0.054885823 -0.3640073 -0.021340953
0.037596945 0.08922836 -0.16747099 0.11518343 0.059067845 0.04257563 0.003278538 -0.10239393
-0.174743 0.075328104 -0.02702827 0.0044201273 0.061445273 0.01865087 0.052366555 -0.07355066
-0.095545314 -0.120917335 -0.06640951 0.15141316 -0.14158326 0.0055138464 0.11067595 -0.031059986
-0.13296975 0.12946787 0.15016298 -0.2664478 0.21757793 -0.12099543 -0.17702761 0.14818251
-0.06867457 0.20012371 -0.06511322 0.15904002 0.17048007 0.17039086 -0.0074711437 -0.041243397
0.022056494 -0.015261179 -0.009303397 0.062939055 -0.04415461 -0.008799986 0.002887203 0.1007485
0.101031415 -0.21984287 0.04052591 0.0932359 -0.12204647 -0.011459447 -0.10111701 -0.16906294
-0.27839905 0.11217858 -0.33683828 0.02806551 0.108628616 0.063479275 -0.008485274 -0.32016775
-0.009235471 -0.017080767 -0.048471216 0.144951 0.013627523 0.054186456 0.0995937 0.12949678
0.15161254 -0.026309574 -0.026441146 0.08008547 0.09867933 -0.061729074 -0.014680778 0.13608916
-0.14436314 0.0392523 -0.2193793 -0.061107494 -0.02200402 -0.017961213 0.005077026 0.00883184
0.11265241 -0.15326878 0.11398618 0.08425562 0.11582167 0.087437384 0.07793168 0.12800555
-0.034212496 0.07978572 0.08954548 0.014270129 0.0010825522 -0.21770945 -0.16802083 -0.030073931
00000000: e7b5 45be a8f4 103d d6ae 273d 6123 38be
00000010: 5f60 c0bd 955d fabd ada6 6cbd 715b 95be
00000020: 183b 38be 9717 f53d 1e1f 903d 1e5e db3d
00000030: 4c1a 2d3e a114 d93d 2443 ff3b 6f02 673d
00000040: 2033 283d 54a4 e0bd bb84 18bd 5067 0d3d
00000050: 56d0 403e 8752 523d 7674 cfbc 941e 913d
00000060: 8de8 61ba 0685 84bd ea00 64bd d933 95be
00000070: 7a88 26bd 3bff e13d 8ceb 05be 667b 8c3b
00000080: 438d da3d 5f34 4dbe 3ad8 38be 153d efbc
00000090: 1605 20bd c71b 6abc 4f3e c5bd 85d5 95bd
000000a0: 180d 99bd 1a38 39be 0035 3fbb ded1 07be
000000b0: b6b7 02be a129 64bd 5e46 46bd df4f 773d
000000c0: e9c2 3cbe 5a9e 9d3d d6ae cfbd 470b b5bb
000000d0: ea01 413c 733e 21be 44c6 c6bd 45dc 74be
000000e0: 07b8 49be cc38 25be 5d42 1dbe a7db 6fbd
000000f0: 7438 a6bd dc87 b9bd db1a b5bb f8ec b4be
00000100: 7b42 15be 85d9 a4bd b34a a2bb dd21 e0bc
00000110: d7cb a53d f26e 143e ae36 073e 705f 3b3d
00000120: 23b2 5abd 7a5c 3ebe 364a 22bc 641e 12be
00000130: 03e0 cc3c 667a 6a3e 3a89 973d 04f0 9e3d
00000140: 950d 78bd 2441 af3e d122 083e 5fa8 c93c
00000150: 4af5 1ebd 6a17 683d 88ea 833e 4ecc 9f3b
00000160: 291b ddbd f1c2 7fbc 333c ab3e a78f eb3d
00000170: d774 33bd 0892 4a3d 8b73 47be 713a 45be
00000180: 0b11 d4bd f6ec a1bd 4ef6 34be be4e a8bd
00000190: 804b 1bbd 3a72 6b3d db6c 75bd 9cfd aabc
000001a0: eac4 e2bc c16a ab3d 9c8f 95bd ebe4 683b
000001b0: b024 9bbe cd09 6dbc 5078 dc3d 0fb7 75be
000001c0: 1f83 bcbd 7b96 623d 7e97 c5bd df7c 31bb
000001d0: 4a1e 643d 747b 7ebb e29d 8b3d 5fef 5b3c
000001e0: 9a35 ffbd dfcf 49be 430e 28be 34fb 363d
000001f0: 2c54 3ebe 6c14 f7bd b6e1 a0bd f0dc 0fbe
00000200: 6c18 02be 713c c2bd 0a2c 41bc b1d2 69bc
00000210: 7aaa 55be 2a55 47be 430a a9bd 1f79 41bd
00000220: db12 30bd fd90 3abe 3e95 333d f210 393d
00000230: 6f75 0cbd 133a 0a3c 8f69 f23d 2a03 353d
00000240: 511c 39bc 2b30 ea3c b8e3 cb3c e119 42be
00000250: ac5a eebd f5cf 603d 2a5f babe 39d3 aebc
00000260: 41ff 193d 5cbd b63d 847d 2bbe 4ae5 eb3d
00000270: 20f1 713d c963 2e3d bddc 563b e9b3 d1bd
00000280: d4ef 32be 9f45 9a3d 646a ddbc b7d6 903b
00000290: 0aae 7b3d b6c9 983c 507e 563d baa1 96bd
000002a0: 43ad c3bd 82a3 f7bd b601 88bd 0d0c 1b3e
000002b0: 34fb 10be 7fad b43b 13aa e23d 8371 febc
000002c0: 3929 08be 3a93 043e 53c4 193e d96b 88be
000002d0: c0cc 5e3e 74cc f7bd ba46 35be 28bd 173e
000002e0: 41a5 8cbd 3bed 4c3e 145a 85bd 63db 223e
000002f0: 5492 2e3e f17a 2e3e 7fd0 f4bb d6ee 28bd
00000300: d2af b43c 060a 7abc 466d 18bc 31e6 803d
00000310: 77db 34bd d12d 10bc 3a37 3d3b 3b55 ce3d
00000320: 8fe9 ce3d 7d1e 61be 7ffe 253d 77f2 be3d
00000330: 80f3 f9bd 68c0 3bbc 6f16 cfbd d61e 2dbe
00000340: 528a 8ebe e2bd e53d 1176 acbe a4e9 e53c
00000350: ae78 de3d 6c01 823d d205 0bbc 07ed a3be
00000360: 5f50 17bc f7ec 8bbc c189 46bd 096e 143e
00000370: f945 5f3c 9ef2 5d3d c8f7 cb3d ce9a 043e
00000380: 5140 1b3e 2d87 d7bc 1a9b d8bc da03 a43d
00000390: 6318 ca3d a0d7 7cbd a587 70bc f55a 0b3e
000003a0: eed3 13be 05c7 203d f8a4 60be da4b 7abd
000003b0: c641 b4bc 6523 93bc 2e5d a63b 6cb3 103c
000003c0: 4fb6 e63d 7ef2 1cbe 9671 e93d 368e ac3d
000003d0: e933 ed3d 5f12 b33d a59a 9f3d e313 033e
000003e0: 6722 0cbd b266 a33d 9f63 b73d 42cd 693c
000003f0: 6de4 8d3a 3aef 5ebe a70d 2cbe 9b5d f6bc

conv2.bias f4 [16]
-1.201892e-05 -0.00019296241 -1.922584e-05 -8.737399e-07 0.00011641662 8.032903e-05 4.1084637e-05 1.789582e-05
2.5351472e-05 2.0631755e-05 3.2714972e-05 -4.4894907e-05 -3.4579534e-05 0.0001589634 -5.1939634e-05 0.00019149423
00000000: dea4 49b7 f455 4ab9 2d47 a1b7 f38a 6ab5
00000010: b224 f438 5276 a838 4b52 2c38 fb1e 9637
00000020: dfa9 d437 5b12 ad37 6f37 0938 8a4d 3cb8
00000030: 7e09 11b8 6aaf 2639 c2d9 59b8 d7cb 4839

bn2.weight f4 [16]
0.77364403 0.57187027 0.6656104 0.4853414 0.90259117 0.9097416 0.530728 0.47551242
0.80147576 0.503132 0.6501932 0.70871246 0.6276935 0.7468972 0.9361438 1.1111449
00000000: 890d 463f 1766 123f 7165 2a3f ab7e f83e
00000010: 3710 673f d3e4 683f cadd 073f 5d76 f33e
00000020: 842d 4d3f 42cd 003f 1073 263f 2e6e 353f
00000030: 85b0 203f a834 3f3f 1fa7 6f3f ff39 8e3f

bn2.bias f4 [16]
-0.40218592 -0.38315806 -0.41689113 -0.3429258 -0.44830996 -0.5378838 -0.5702836 -0.42509446
-0.6160403 -0.25843126 -0.54935265 -0.39120182 -0.5314685 -0.3373751 -0.89297724 -0.692914
00000000: 50eb cdbe 4b2d c4be c172 d5be f893 afbe
00000010: e288 e5be c1b2 09bf 1bfe 11bf fba5 d9be
00000020: d1b4 1dbf 1a51 84be 60a2 0cbf 9b4b c8be
00000030: 520e 08bf 6ebc acbe 289a 64bf d062 31bf

bn2.running_mean f4 [16]
-1.3771967 -0.9147589 -0.53602827 0.24644643 -1.1788096 -0.8944395 0.24772398 0.27512637
-0.7697442 -0.08377945 -0.46952847 -0.46478415 -0.73081255 -1.4106826 -1.1679605 -1.7383287
00000000: fb47 b0bf a42d 6abf 2639 09bf 745c 7c3e
00000010: 3ce3 96bf fdf9 64bf 5bab 7d3e 5ddd 8c3e
00000020: f50d 45bf 8f94 abbd 0966 f0be 30f8 edbe
00000030: 8816 3bbf 3f91 b4bf bb7f 95bf 8e81 debf

bn2.running_var f4 [16]
0.68333775 0.3074546 0.4834334 0.9469428 0.93449956 0.61419624 0.78047264 0.44264966
0.55474395 0.621624 0.39828825 0.6658894 0.25218588 0.82233524 0.6647027 1.0378615
00000000: 39ef 2e3f b06a 9d3e 9584 f73e d86a 723f
00000010: 5d3b 6f3f f73b 1d3f 0ecd 473f faa2 e23e
00000020: b303 0e3f c022 1f3f 70ec cb3e ba77 2a3f
00000030: 821e 813e 9084 523f f529 2a3f a5d8 843f

conv3.weight f4 [16, 16, 3, 3]
0.019671636 0.10224097 -0.0053206882 0.06384436 0.048753325 -0.21660192 0.05307728 0.02314694
-0.14181441 -0.049405757 -0.2943042 -0.209128 0.08204361 0.013557899 -0.012182296 0.07336152
0.048106425 -0.013367076 -0.06422315 -0.1410041 0.12680031 -0.2865296 0.052387405 0.07674236
-0.15775691 -0.09310483 -0.16730353 0.013831493 0.06305677 -0.12037718 0.0090929475 -0.08294795
-0.00453872 -0.03125744 -0.011501649 -0.0051435195 -0.13430649 0.035905834 -0.00011754618 0.04252902
-0.045170024 -0.12545854 0.14710897 -0.032812327 -0.1310779 -0.11511309 -0.2045663 -0.060173225
0.014441017 -0.044789597 -0.044509087 0.015477133 0.0540394 0.111118525 -0.071364164 0.06512543
0.041435827 -0.109703906 0.103606716 -0.029140646 -0.09322435 -0.11243383 -0.11282495 -0.077498645
-0.050476674 0.061266802 -0.15108389 0.0114167 0.07512097 -0.10527263 -0.05329403 -0.024683839
-0.114560656 -0.35956833 -0.30712813 -0.06706092 0.030671312 0.04617129 -0.01058437 0.05436557
0.04194173 -0.09228159 0.14765981 -0.07749464 0.009086039 -0.012468352 0.023247624 -0.106592044
-0.21272494 -0.13353932 0.05719664 0.119262636 0.11473423 -0.12078364 0.11052421 -0.09633281
-0.33173308 -0.13080232 -0.21273226 0.10169348 -0.09733212 0.054866657 -0.09282769 -0.060829498
-0.122031204 -0.09486698 0.018613033 0.010119642 -0.05861296 -0.040504016 0.06790247 -0.05266702
0.07209661 -0.059973877 -0.09928008 -0.098565295 -0.06679417 -0.10894425 -0.073550604 0.053597223
-0.013720879 -0.09021202 -0.077695675 0.04974351 -0.01887054 0.09589256 -0.15742406 0.014180128
0.22174351 -0.27300927 -0.17605169 -0.11963759 -0.13365375 -0.046826944 0.16649394 0.065767385
-0.08135749 -0.1989618 0.09110141 0.08382339 -0.118050404 0.124764875 -0.097009264 -0.30896273
0.037382454 0.047433533 -0.022676652 -0.019720811 -0.08096306 -0.03937602 0.049295586 -0.06331085
0.19426644 -0.1821533 -0.16682374 -0.029274752 -0.11437744 0.002178645 0.02062194 -0.046952028
-0.013919534 0.10388481 -0.095201336 0.008816044 -0.035777796 0.10703441 0.06294513 -0.115463726
-0.014707248 0.01868371 -0.04519635 -0.056705188 0.12099684 -0.04663905 -0.07111535 0.010647959
-0.22002958 -0.25588292 -0.22960682 -0.25838083 -0.17067756 0.17006053 0.041583832 -0.007991211
0.09826149 -0.023531724 -0.04682295 -0.18205449 0.16841117 -0.1620041 0.21276136 -0.0029972992
0.07190065 0.21652977 0.04945521 -0.075597964 -0.18382978 0.06409201 0.03813967 -0.15087126
0.116044626 0.06535702 -0.15642297 0.032061905 0.04993329 -0.024870668 0.041354768 0.02287043
-0.0489395 0.050430767 0.04440447 0.012663724 -0.10003112 -0.00013658959 -0.03093588 -0.005105224
-0.028537916 -0.26519996 -0.030978216 -0.19108343 -0.1333651 -0.085240774 -0.3271862 -0.2563896
-0.048997626 0.007063889 -0.13872512 0.02094761 -0.10936204 0.046978436 0.11643026 -0.11019598
0.11278944 -0.08437605 0.10148789 0.061505415 0.0809567 -0.0074219406 -0.019832961 -0.06827119
0.033214025 -0.09091944 -0.06467503 -0.2849277 0.18956243 -0.04293183 0.053605743 0.057239313
-0.16661626 0.056492686 -0.3045025 0.0382756 -0.05547431 0.03906908 -0.030439155 0.062322713
00000000: 6926 a13c b763 d13d 2b59 aebb d5c0 823d
00000010: 91b1 473d e5cc 5dbe 9067 593d a79e bd3c
00000020: cc37 11be b15d 4abd 0aaf 96be a725 56be
00000030: 7b06 a83d f321 5e3c 4198 47bc 913e 963d
00000040: 3e0b 453d 9501 5bbc 6d87 83bd 6163 10be
00000050: f1d7 013e 02b4 92be 2d94 563d 192b 9d3d
00000060: 078b 21be bfad bebd 9e51 2bbe 7d9d 623c
00000070: e823 813d 5088 f6bd 96fa 143c 9de0 a9bd
00000080: 8bb9 94bb cd07 00bd 6a71 3cbc f88a a8bb
00000090: a487 09be ff11 133d 2083 f6b8 e932 2e3d
000000a0: 3404 39bd 3478 00be bca3 163e 3866 06bd
000000b0: 4939 06be 69c0 ebbd d479 51be 3378 76bd
000000c0: 049a 6c3c 4c75 37bd 294f 36bd cd93 7d3c
000000d0: 6b58 5d3d 1c92 e33d 6027 92bd 7b60 853d
000000e0: 9db8 293d 71ac e0bd c22f d43d 5db8 eebc
000000f0: 68ec bebd b543 e6bd c410 e7bd 9cb7 9ebd
00000100: a1c0 4ebd e6f2 7a3d bcb5 1abe 1c0d 3b3c
00000110: 06d9 993d 2d99 d7bd d74a 5abd c335 cabc
00000120: c79e eabd 5719 b8be e63f 9dbe 3c57 89bd
00000130: 6742 fb3c 1b1e 3d3d 116a 2dbc 6fae 5e3d
00000140: 17cb 2b3d 21fe bcbd 2234 173e 83b5 9ebd
00000150: 9cdd 143c 0f48 4cbc cd71 be3c ee4c dabd
00000160: 91d4 59be 88be 08be 0647 6a3d f83f f43d
00000170: c8f9 ea3d 6a5d f7bd 845a e23d 234a c5bd
00000180: ebd8 a9be 0bf1 05be 7cd6 59be ac44 d03d
00000190: 1056 c7bd dcbb 603d 721c bebd 5a28 79bd
000001a0: 7feb f9bd 9f49 c2bd 5c7a 983c dbcc 253c
000001b0: 2514 70bd 8ae7 25bd 7310 8b3d 60b9 57bd
000001c0: 63a7 933d 2ba7 75bd 5b53 cbbd 9adc c9bd
000001d0: 62cb 88bd 2a1e dfbd b3a1 96bd c388 5b3d
000001e0: 8acd 60bc 14c1 b8bd e91e 9fbd dabf 4b3d
000001f0: 6496 9abc 5263 c43d c633 21be c553 683c
00000200: bb10 633e dfc7 8bbe e546 34be 8e04 f5bd
00000210: 87dc 08be 9ccd 3fbd 637d 2a3e 0db1 863d
00000220: c19e a6bd a4bc 4bbe 6093 ba3d 99ab ab3d
00000230: 69c4 f1bd ba84 ff3d cbac c6bd 5d30 9ebe
00000240: 581e 193d aa49 423d 63c4 b9bc 8a8d a1bc
00000250: f6cf a5bd c048 21bd 2bea 493d 1ea9 81bd
00000260: c8ed 463e 6586 3abe d8d3 2abe 9bd1 efbc
00000270: b83e eabd 99c7 0e3b 58ef a83c c550 40bd
00000280: c20e 64bc 8fc1 d43d ebf8 c2bd 2b71 103c
00000290: bd8b 12bd db34 db3d 60e9 803d 3f78 ecbd
000002a0: abf6 70bc 940e 993c cf1f 39bd b343 68bd
000002b0: 31cd f73d 9708 3fbd eda4 91bd c774 2e3c
000002c0: 6f4f 61be 1603 83be 0d1e 6bbe 7e4a 84be
000002d0: 19c6 2ebe 5924 2e3e cf53 2a3d 91ed 02bc
000002e0: 523d c93d 9ac5 c0bc 6cc9 3fbd 7e6c 3abe
000002f0: fa73 2c3e 67e4 25be 1dde 593e 566e 44bb
00000300: a640 933d fbb9 5d3e 8c91 4a3d 1bd3 9abd
00000310: e03d 3cbe ac42 833d 5838 1c3d ff7d 1abe
00000320: cea8 ed3d e7d9 853d 582d 20be 5853 033d
00000330: d986 4c3d 92bd cbbc 9e63 293d c55a bb3c
00000340: c974 48bd 7e90 4e3d 76e1 353d 827b 4f3c
00000350: 1edd ccbd 7d39 0fb9 3e6d fdbc b949 a7bb
00000360: 59c8 e9bc 4ac8 87be 07c6 fdbc 60ab 43be
00000370: dc90 08be b792 aebd f384 a7be 7f45 83be
00000380: bcb1 48bd 3278 e73b f50d 0ebe 529a ab3c
00000390: 35f9 dfbd 766c 403d fd72 ee3d 6eae e1bd
000003a0: 26fe e63d 5acd acbd e2d8 cf3d 1aed 7b3d
000003b0: a0cc a53d c033 f3bb bc78 a2bc c4d1 8bbd
000003c0: 6e0b 083d f933 babd 5874 84bd 0be2 91be
000003d0: a71c 423e 49d9 2fbd b291 5b3d c573 6a3d
000003e0: 749d 2abe e064 673d c0e7 9bbe e0c6 1c3d
000003f0: 0839 63bd e606 203d 895b f9bc 1a46 7f3d

conv3.bias f4 [16]
1.7666142e-05 1.4599024e-05 -5.1578594e-05 2.1617966e-06 1.616373e-05 7.9744175e-05 1.5775247e-05 -2.836942e-05
1.42236095e-05 3.5523688e-05 -9.604827e-05 -1.9988182e-05 1.9408286e-05 1.4444034e-06 -1.3011927e-06 1.3193012e-05
00000000: c031 9437 55ee 7437 1856 58b8 6213 1136
00000010: 5997 8737 543c a738 1655 8437 defa edb7
00000020: f0a1 6e37 45ff 1438 866d c9b8 4bac a7b7
00000030: face a237 53dd c135 a4a4 aeb5 8e57 5d37

bn3.weight f4 [16]
0.7140709 0.81653714 0.7956356 0.579816 0.6501549 0.65604013 0.70779926 0.7742641
0.44974554 0.655219 0.6984222 0.67169553 0.70352 0.4166727 0.46756893 0.6183486
00000000: 5acd 363f 9408 513f c6ae 4b3f d26e 143f
00000010: 8d70 263f 3ff2 273f 5532 353f 2c36 463f
00000020: 0c45 e63e 6fbc 273f cccb 323f 3df4 2b3f
00000030: e319 343f 2056 d53e 3265 ef3e 184c 1e3f

bn3.bias f4 [16]
-0.75509214 -0.6043003 -0.7469946 -0.6935575 -0.6216138 -0.62072754 -0.3328395 -1.1060935
-0.43596467 -0.362586 -0.38128108 -0.73897195 -0.48775303 -0.32987526 -0.52582246 -0.13767384
00000000: b84d 41bf 6db3 1abf 0a3b 3fbf fc8c 31bf
00000010: 1522 1fbf 00e8 1ebf f069 aabe 7994 8dbf
00000020: c336 dfbe dfa4 b9be 4637 c3be 442d 3dbf
00000030: c4ba f9be 69e5 a8be 4d9c 06bf 5ffa 0cbe

bn3.running_mean f4 [16]
-0.5788786 -0.30639836 -0.41214302 -0.35088524 -0.3287281 -0.3763015 -0.246214 -0.6347169
-0.034795273 -0.24776249 -0.2067334 -0.46509084 -0.30723318 -0.09822138 -0.40185094 -0.14984712
00000000: 6331 14bf 3fe0 9cbe 6904 d3be 3ba7 b3be
00000010: 0d4f a8be 97aa c0be 861f 7cbe cf7c 22bf
00000020: 7d85 0ebd 73b5 7dbe ecb1 53be 6320 eebe
00000030: ab4d 9dbe 4a28 c9bd 68bf cdbe 8671 19be

bn3.running_var f4 [16]
0.19485165 0.24571298 0.22730677 0.10118066 0.09437876 0.113604754 0.2707488 0.21715084
0.16567145 0.16904518 0.17619471 0.14321722 0.20994937 0.079268746 0.13377748 0.2054685
00000000: 3187 473e 2f9c 7b3e 1bc3 683e ce37 cf3d
00000010: a749 c13d 9ca9 e83d 969f 8a3e ca5c 5e3e
00000020: c7a5 293e 2e1a 2d3e 636c 343e 89a7 123e
00000030: f8fc 563e a757 a23d f7fc 083e 5666 523e

conv4.weight f4 [16, 16, 3, 3]
-0.020193428 -0.013413241 -0.0929174 -0.025120286 0.0070216577 0.022822386 -0.00996217 -0.09531551
0.04025201 -0.14128534 -0.14088787 0.015420573 -0.05091536 -0.026586013 0.1571997 -0.07499934
-0.015166186 -0.05004098 -0.11864726 -0.05810711 -0.15451507 0.05104204 -0.02104977 -0.107723325
0.039188426 -0.1121301 0.020151898 0.08180279 0.05291352 0.014939939 -0.061656017 -0.078455396
-0.071293525 -0.03965111 0.06573304 -0.0043909894 0.029349618 -0.020954352 0.123256534 -0.05445128
0.02181191 0.063869126 -0.16549288 -0.08452735 -0.04216793 0.007212994 0.053363707 -0.115100086
-0.0265268 -0.026876701 -0.071689405 0.037153214 0.064887695 0.0035270809 0.028701704 0.15996245
0.088661835 -0.16328599 -0.106071375 -0.16192184 -0.21704468 -0.1674289 -0.17528379 -0.1375249
-0.06338214 -0.12918432 0.00028404457 0.1793547 -0.08644058 0.03006445 0.114892095 -0.15295042
-0.091812976 -0.041832414 0.07494852 -0.042989504 -0.040479586 -0.18720087 0.0032307878 -0.028784007
-0.10136903 0.028769512 -0.11190264 0.07664302 -0.084198676 -0.07726753 -0.00018712439 -0.15728629
0.033913635 -0.14197265 -0.0152711375 -0.06688853 0.07461271 -0.028558489 -0.14015877 0.10172913
-0.0011804112 -0.16690157 -0.010084308 0.07208547 0.08803647 0.021848261 0.0022394997 -0.01340824
-0.11436136 -0.034948632 0.011419409 0.008967803 0.016234046 -0.04172416 0.06711301 0.20087309
-0.047507524 -0.21640956 -0.15936859 -0.21050532 -0.13421088 0.047651216 0.017324286 -0.0073622074
-0.056005035 -0.03269953 -0.1715072 -0.017166855 0.10850546 0.007999571 -0.08153826 -0.056207277
-0.0055824276 -0.06134456 -0.017027179 -0.07798154 0.010805986 -0.05434361 0.17410193 0.06994134
0.04419527 0.014087418 -0.083454564 -0.026648935 0.011530484 -0.034635916 -0.06568542 -0.044569504
-0.09905192 -0.07826711 -0.06733429 -0.16565238 -0.0058661913 0.019327108 -0.0048814756 0.23384547
0.052974798 -0.02963575 -0.003698446 0.023959806 0.05088415 0.060611743 0.021239324 0.07108118
-0.014815175 0.030819444 -0.05002664 0.061867923 -0.07796327 0.0037934068 -0.068760395 0.04316264
0.039301045 -0.094925374 -0.027807258 -0.26897043 0.05103026 0.104491204 -0.20299792 0.0048159156
-0.009506593 -0.1345687 -0.04469289 -0.023423875 0.008704363 0.0062154573 -0.04483205 -0.024716962
0.0062229834 0.015820295 -0.0001892281 -0.019459836 0.0109634735 -0.07922556 0.042674247 0.03945752
0.037317593 -0.12027222 -0.014942727 0.09349078 -0.032891776 0.033251856 -0.024261827 0.06267701
-0.068984054 -0.0076096267 0.15816917 0.14170389 -0.16433859 0.026608579 -0.06966796 0.019819414
-0.018699178 -0.047566276 0.030373622 0.044209152 -0.058498655 -0.058460545 0.11304831 -0.0020250643
-0.18923125 -0.078082 0.10456735 -0.15489517 -0.10630675 0.11801276 -0.16823211 -0.07112931
0.008866574 -0.067396685 -0.11890219 -0.014605044 0.005439887 0.11082972 -0.0405845 0.053380936
0.19440259 0.020184467 -0.06808986 -0.13569638 -0.014532094 0.04232184 0.015490205 0.051857926
0.041394077 0.03644436 0.056116607 -0.15799886 -0.05007463 0.030642077 -0.15260941 0.055318892
-0.036190696 -0.07921549 0.04736639 0.05984416 0.08476264 0.025323818 -0.117294565 -0.041563354
00000000: b06c a5bc 36c3 5bbc 7a4b bebd 0fc9 cdbc
00000010: ef15 e63b 03f6 ba3c 5f38 23bc c734 c3bd
00000020: 4bdf 243d 1bad 10be e944 10be 92a6 7c3c
00000030: a08c 50bd e9ca d9bc f5f8 203e 4199 99bd
00000040: 987b 78bc c5f7 4cbd 56fd f2bd b901 6ebd
00000050: 3339 1ebe 7511 513d 9170 acbc 0c9e dcbd
00000060: 0b84 203d 77a4 e5bd 9815 a53c 3988 a73d
00000070: d9bb 583d a5c6 743c 058b 7cbd 39ad a0bd
00000080: 5702 92bd 3469 22bd 0b9f 863d 4ae2 8fbb
00000090: 9c6e f03c 76a8 abbc ec6d fc3d 4e08 5fbd
000000a0: e4ae b23c d1cd 823d f776 29be ad1c adbd
000000b0: 48b8 2cbd fb5a ec3b e793 5a3d 98b9 ebbd
000000c0: bb4e d9bc 872c dcbc e5d1 92bd f82d 183d
000000d0: d7e3 843d 9926 673b d61f eb3c 32cd 233e
000000e0: 5694 b53d 7134 27be f33b d9bd d7ce 25be
000000f0: f640 5ebe 7b72 2bbe 987d 33be 54d3 0cbe
00000100: 7fce 81bd e548 04be d1eb 9439 c2a8 373e
00000110: c207 b1bd b949 f63c 8c4c eb3d 099f 1cbe
00000120: 7108 bcbd 7758 2bbd 9c7e 993d c315 30bd
00000130: eccd 25bd 96b1 3fbe a0bb 533b 70cc ebbc
00000140: 919a cfbd 0aae eb3c 362d e5bd 04f7 9c3d
00000150: 5b70 acbd 703e 9ebd d236 44b9 a80f 21be
00000160: 06e9 0a3d 4761 11be cb33 7abc dbfc 88bd
00000170: 8cce 983d 7ef3 e9bc c885 0fbe 5d57 d03d
00000180: 07b8 9aba 3fe8 2abe a738 25bc 8ca1 933d
00000190: 774c b43d 20fb b23c 92c4 123b 3cae 5bbc
000001a0: 4a36 eabd 4c26 0fbd 7918 3b3c b1ed 123c
000001b0: 43fd 843c f4e6 2abd 8c72 893d adb1 4d3e
000001c0: 4097 42bd 789a 5dbe 8531 23be b58e 57be
000001d0: 946e 09be ec2d 433d a9eb 8d3c ac3e f1bb
000001e0: 8965 65bd f1ef 05bd 959f 2fbe 81a1 8cbc
000001f0: 1c38 de3d a210 033c 88fd a6bd 9a39 66bd
00000200: ccec b6bb 6f44 7bbd 957c 8bbc c9b4 9fbd
00000210: 970b 313c 6897 5ebd c747 323e 683d 8f3d
00000220: 1906 353d eace 663c 3aea aabd de4e dabc
00000230: 5bea 3c3c 64de 0dbd 1486 86bd 838e 36bd
00000240: bcdb cabd 824a a0bd 8fe6 89bd c7a0 29be
00000250: 2e39 c0bb e253 9e3c c9f4 9fbb 3075 6f3e
00000260: 1afc 583d acc6 f2bc a161 72bb 5b47 c43c
00000270: e66b 503d 0544 783d 17fe ad3c 0293 913d
00000280: 59bb 72bc 0f79 fc3c bce8 4cbd 3869 7d3d
00000290: 35ab 9fbd ce9a 783b 40d2 8cbd 4fcb 303d
000002a0: 22fa 203d 3c68 c2bd 0ccc e3bc 7eb6 89be
000002b0: 1b05 513d 7cff d53d b0de 4fbe d4ce 9d3b
000002c0: 8bc1 1bbc 61cc 09be e40f 37bd 6de3 bfbc
000002d0: bf9c 0e3c 09ab cb3b d0a1 37bd 3a7b cabc
000002e0: 2bea cb3b 9099 813c 886b 46b9 3c6a 9fbc
000002f0: 24a0 333c 0341 a2bd 31cb 2e3d 359e 213d
00000300: 55da 183d 4851 f6bd 57d2 74bc 1878 bf3d
00000310: 87b9 06bd 1933 083d bdc0 c6bc ce5c 803d
00000320: 8347 8dbd 2d5a f9bb 19f7 213e d31a 113e
00000330: 6048 28be 3cfa d93c 13ae 8ebd 535c a23c
00000340: 052f 99bc dbd4 42bd 1ad2 f83c a814 353d
00000350: 499c 6fbd 5374 6fbd df85 e73d f1b6 04bb
00000360: d6c5 41be 75e9 9fbd 6827 d63d d79c 1ebe
00000370: 5ab7 d9bd adb0 f13d 0a45 2cbe 3eac 91bd
00000380: 1b45 113c 4607 8abd fe82 f3bd ff49 6fbc
00000390: 1441 b23b b1fa e23d ef3b 26bd f8a5 5a3d
000003a0: 7911 473e e559 a53c b272 8bbd fef3 0abe
000003b0: 0518 6ebc aa59 2d3d a1ca 7d3c fa68 543d
000003c0: d68c 293d ae46 153d 87da 653d 74ca 21be
000003d0: 0e1b 4dbd 1805 fb3c a445 1cbe 1096 623d
000003e0: b23c 14bd bb3b a2bd 4203 423d 261f 753d
000003f0: 0998 ad3d e573 cf3c 2238 f0bd 563e 2abd

conv4.bias f4 [16]
1.3752918e-05 1.2173235e-05 1.1893933e-06 -4.5599747e-05 -1.3428274e-05 -8.771207e-06 -2.6714428e-05 -7.4567765e-06
-1.6999315e-05 -1.4160102e-06 1.7983699e-05 -5.7994685e-06 1.4675656e-05 3.7186375e-05 -1.5087534e-05 6.0276966e-06
00000000: 55bc 6637 a53b 4c37 3ea3 9f35 5b42 3fb8
00000010: ff49 61b7 0c28 13b7 cc18 e0b7 3935 fab6
00000020: c099 8eb7 bd0d beb5 b3db 9637 0e99 c2b6
00000030: 7637 7637 91f8 1b38 7720 7db7 8541 ca36

bn4.weight f4 [16]
0.42057586 0.41944283 0.65641004 0.6522989 0.452849 0.49376008 0.51392525 0.6475541
0.37234446 0.58266544 0.6026484 0.50855213 0.5187934 0.47659054 0.5451098 0.6155131
00000000: b855 d73e 36c1 d63e 7d0a 283f 10fd 263f
00000010: d3db e73e 1fce fc3e 9b90 033f 1bc6 253f
00000020: efa3 be3e 9029 153f 2a47 1a3f 7930 023f
00000030: a5cf 043f ad03 f43e 518c 0b3f 4492 1d3f

bn4.bias f4 [16]
-0.5522875 -0.26959288 -0.75153106 -0.99104035 -0.37404975 -0.6737607 -0.6513796 -0.89435583
-0.5743157 -0.96658456 -0.9790474 -0.9479103 -0.6406197 -0.16914833 -0.7361752 -0.81168246
00000000: b762 0dbf 1408 8abe 5764 40bf d2b4 7dbf
00000010: 7383 bfbe 957b 2cbf d0c0 26bf 81f4 64bf
00000020: 5b06 13bf 1672 77bf daa2 7abf 40aa 72bf
00000030: a7ff 23bf 3835 2dbe fa75 3cbf 6cca 4fbf

bn4.running_mean f4 [16]
-0.4636521 -0.23911342 -0.3532436 -0.47879305 -0.30619833 -0.45043746 -0.28246203 -0.40126067
-0.12072968 -0.35311565 -0.40638563 -0.15856965 -0.46604645 -0.078042604 -0.4585824 -0.31859148
00000000: cf63 edbe 26da 74be 58dc b4be 5d24 f5be
00000010: 07c6 9cbe bd9f e6be dd9e 90be 0a72 cdbe
00000020: 1f41 f7bd 93cb b4be c711 d0be 1560 22be
00000030: a49d eebe cdd4 9fbd 50cb eabe 6c1e a3be

bn4.running_var f4 [16]
0.11731024 0.16020721 0.2188407 0.1713075 0.14486392 0.13053703 0.120088644 0.13703975
0.08887893 0.11577651 0.16301383 0.080067895 0.19252661 0.107788034 0.13360639 0.15587313
00000000: 5a40 f03d 5c0d 243e c717 603e 3c6b 2f3e
00000010: 3557 143e 80ab 053e 09f1 f53d 2654 0c3e
00000020: 2806 b63d 3c1c ed3d 19ed 263e a3fa a33d
00000030: b225 453e f9bf dc3d 1dd0 083e 359d 1f3e

conv5.weight f4 [16, 16, 3, 3]
-0.06347353 -0.021129021 0.08504148 -0.10984229 -0.04457372 0.015256967 0.036467202 -0.09145088
-0.024186313 -0.14229217 0.13272452 0.021582749 -0.054218777 -0.061239008 -0.08917471 -0.05436482
-0.025249824 0.14250079 -0.21097612 -0.11114637 0.07045946 -0.022251677 -0.008536765 0.15164779
-0.005178937 0.08702475 -0.008592087 -0.057453085 -0.060586512 -0.045745548 0.16031405 0.09991202
0.025682505 0.16611548 0.1683053 0.05915132 -0.2849614 -0.19882034 0.046226017 0.016444225
0.019267943 -0.0030258887 0.0783999 0.001264707 0.031097999 -0.116229706 0.012990757 0.19770603
-0.07126714 0.11519249 -0.044070736 0.10254563 0.015375502 0.03297416 -0.06750568 -0.098346435
-0.09007432 -0.010343109 -0.01323259 0.029813303 -0.0022312135 -0.016864492 -0.01777906 -0.01584288
-0.08931012 -0.058470957 0.0031565619 -0.026244339 0.0055164844 -0.012694103 -0.002564235 -0.0030636245
-0.1420269 -0.06533365 -0.053823814 0.087481104 0.110065535 0.004279942 0.07331842 0.06635784
0.24551366 -0.103120826 -0.1374952 -0.112413995 -0.048748277 -0.048929565 -0.063041165 -0.085343465
-0.02753128 -0.05029784 -0.04606469 -0.019250836 -0.07831242 0.14677404 0.05288147 -0.013770562
0.20395435 0.055672918 0.12081439 0.027125895 -0.027013466 -0.08440454 0.03129188 0.02021563
-0.050061386 0.031131856 0.022229243 0.002244159 -0.12287692 -0.073023304 0.046996716 -0.19178475
-0.112643026 -0.009410513 -0.041543715 -0.07364797 0.13525753 -0.010382151 0.016906606 0.030780485
-0.014263863 0.011698434 0.009413859 -0.012211375 0.0026062706 -0.0038732267 -0.06740648 -0.030119793
-0.016224 0.01754201 -0.052279178 0.18544452 -0.030206576 -0.08869493 -0.07949716 0.02003527
-0.12139663 -0.14519499 0.11362062 0.026777383 -0.045135725 0.09427164 0.08924435 0.042689856
-0.0247204 0.07620664 0.23312953 -0.02347893 -0.010599385 0.09989107 -0.008323667 -0.14347139
-0.0061078244 0.053907093 0.07994479 0.09146143 -0.027070077 -0.10123701 0.020360751 -0.14042932
-0.16297679 -0.008220762 0.03809162 -0.110513344 -0.055134702 0.07986677 -0.049568724 -0.15878469
0.073922016 -0.026034782 0.027421983 -0.049013566 -0.05091935 -0.03499456 -0.07220311 0.053358626
0.009180151 -0.08494297 -0.07128241 0.030843854 0.10213431 0.07844143 -0.044311292 0.033720233
-0.03971513 -0.12833443 -0.005851123 -0.21905892 -0.118624434 0.03854411 -0.09878232 0.03477558
-0.1812156 -0.04354397 -0.056382496 -0.14453197 -0.017035646 0.0042417585 -0.035885617 -0.005310826
-0.05858483 -0.017874664 0.024978863 -0.057902537 -0.061761703 -0.12610605 -0.0731748 -0.039743084
-0.031139504 -0.022393364 -0.1431206 -0.0626138 -0.18333003 -0.0492129 -0.08175732 -0.07954474
-0.029005501 -0.058617406 -0.097196504 -0.024408057 0.03560743 -0.036274623 -0.040425323 -0.061055265
-0.041906238 -0.10939045 -0.033716843 -0.03298798 -0.21440856 -0.11194669 -0.07422335 -0.090601794
-0.053167447 -0.079837054 -0.0074887266 -0.043726925 -0.03217109 -0.066340655 -0.029150844 -0.018788777
-0.0064487914 -0.053157672 -0.010056803 -0.02189009 -0.09382969 -0.03013111 -0.034177482 -0.061121255
-0.034686837 -0.042549763 -0.061207518 -0.0598424 0.18898152 0.06872345 -0.11369936 0.15900883
00000000: 69fe 81bd c516 adbc 3a2a ae3d fff4 e0bd
00000010: ef92 36bd 5cf8 793c a25e 153d 994a bbbd
00000020: 6022 c6bc 0ab5 11be f0e8 073e 4ece b03c
00000030: 8214 5ebd c1d5 7abd 3ba1 b6bd a5ad 5ebd
00000040: b8d8 cebc baeb 113e 200a 58be b5a0 e3bd
00000050: 0d4d 903d 2649 b6bc cadd 0bbc 8f49 1b3e
00000060: 13b4 a9bb 083a b23d d3c5 0cbc ed53 6bbd
00000070: 9029 78bd af5f 3bbd 5e29 243e ac9e cc3d
00000080: 1e64 d23c 2d1a 2a3e 3958 2c3e a848 723d
00000090: 76e6 91be 8f97 4bbe 7e57 3d3d 0ab6 863c
000000a0: ced7 9d3c fd4d 46bb 2090 a03d 86c4 a53a
000000b0: 3bc1 fe3c d709 eebd 2fd7 543c 7373 4a3e
000000c0: 82f4 91bd 0aea eb3d 8483 34bd 7103 d23d
000000d0: 88e9 7b3c ea0f 073d 6b40 8abd db69 c9bd
000000e0: e378 b8bd 2576 29bc 81cd 58bc 073b f43c
000000f0: 8d39 12bb 6727 8abc 64a5 91bc edc8 81bc
00000100: 39e8 b6bd 3e7f 6fbd 52de 4e3b 5efe d6bc
00000110: a0c3 b43b edfa 4fbc b90c 28bb 17c7 48bb
00000120: 806f 11be a6cd 85bd 5c76 5cbd 4b29 b33d
00000130: 0a6a e13d c13e 8c3b f827 963d 9fe6 873d
00000140: ef67 7b3e 0331 d3bd 8bcb 0cbe 4f39 e6bd
00000150: 46ac 47bd 5e6a 48bd ba1b 81bd 8ec8 aebd
00000160: 4789 e1bc 1c05 4ebd 54ae 3cbd eeb3 9dbc
00000170: 4362 a0bd ef4b 163e 3e9a 583d ec9d 61bc
00000180: 69d9 503e 4909 643d 896d f73d 2037 de3c
00000190: 584b ddbc 4adc acbd ea2b 003d 409b a53c
000001a0: 2b0d 4dbd 3c08 ff3c 1a1a b63c be12 133b
000001b0: e5a6 fbbd 3e8d 95bd a17f 403d 3963 44be
000001c0: 63b1 e6bd 8d2e 1abc be29 2abd bfd4 96bd
000001d0: f380 0a3e e619 2abc b97f 8a3c 5b27 fc3c
000001e0: fab2 69bc caaa 3f3c 963c 1a3c 3812 48bc
000001f0: f7cd 2a3b f6d5 7dbb 690c 8abd c9bd f6bc
00000200: 32e8 84bc 43b4 8f3c b122 56bd 2be5 3d3e
00000210: c873 f7bc b0a5 b5bd 68cf a2bd 0221 a43c
00000220: cc9e f8bd ffad 14be edb1 e83d 3e5c db3c
00000230: 3de0 38bd 7d11 c13d bec5 b63d 8fdb 2e3d
00000240: 7082 cabc 3a12 9c3d 82b9 6e3e e356 c0bc
00000250: 0ba9 2dbc b093 cc3d fd5f 08bc 2aea 12be
00000260: 2524 c8bb afcd 5c3d 18ba a33d 2150 bb3d
00000270: 11c2 ddbc 5955 cfbd 97cb a63c b4cc 0fbe
00000280: 63e3 26be 60b0 06bc f505 1c3d d254 e2bd
00000290: edd4 61bd 3091 a33d 9308 4bbd 7498 22be
000002a0: 6d64 973d e546 d5bc 11a4 e03c 73c2 48bd
000002b0: cf90 50bd 7556 0fbd 39df 93bd 938e 5a3d
000002c0: 5868 163c 94f6 adbd 83fc 91bd 40ac fc3c
000002d0: cb2b d13d e7a5 a03d c27f 35bd 3a1e 0a3d
000002e0: 55ac 22bd 1a6a 03be c7ba bfbb fb50 60be
000002f0: 5ef1 f2bd 6ee0 1d3d 634e cabd d770 0e3d
00000300: 9590 39be 295b 32bd 55f1 66bd 3000 14be
00000310: 578e 8bbc 73fe 8a3b ccfc 12bd 7006 aebb
00000320: a6f6 6fbd e36d 92bc 79a0 cc3c 362b 6dbd
00000330: d7f9 7cbd f221 01be abdc 95bd a5c9 22bd
00000340: 4618 ffbc 4a72 b7bc 358e 12be aa3b 80bd
00000350: deba 3bbe 7793 49bd 6270 a7bd 5ae8 a2bd
00000360: f29c edbc ce18 70bd f60e c7bd 68f3 c7bc
00000370: 19d9 113d b394 14bd 0695 25bd 1615 7abd
00000380: e0a5 2bbd 1a08 e0bd ac1a 0abd 671e 07bd
00000390: eb8d 5bbe 4e44 e5bd 6902 98bd 6f8d b9bd
000003a0: 1cc6 59bd 9c81 a3bd fe63 f5bb 011b 33bd
000003b0: d5c5 03bd 9cdd 87bd c0cd eebc ecea 99bc
000003c0: 6250 d3bb dcbb 59bd 4ac5 24bc d952 b3bc
000003d0: c829 c0bd 85d5 f6bc b0fd 0bbd 485a 7abd
000003e0: c913 0ebd a948 2ebd bcb4 7abd 4e1d 75bd
000003f0: 5f84 413e e1be 8c3d 36db e8bd 36d3 223e

conv5.bias f4 [16]
1.7863638e-05 1.504567e-05 -7.971394e-06 3.0111594e-06 -1.3655914e-05 1.5360926e-06 2.205395e-05 -8.540249e-06
9.422111e-06 2.9510686e-05 -8.490809e-06 1.7552333e-05 5.5281907e-06 -1.1900909e-06 -3.1030086e-06 5.1119895e-07
00000000: dfd9 9537 a96c 7c37 e0bc 05b7 5313 4a36
00000010: b41b 65b7 bd2b ce35 7f00 b937 1748 0fb7
00000020: a913 1e37 b78d f737 bf73 0eb7 593d 9337
00000030: cc7e b936 36bb 9fb5 483d 50b6 5339 0935

bn5.weight f4 [16]
0.76882267 0.7219334 1.148256 0.7516172 0.7089174 0.8879635 0.71087307 0.7533078
1.0764309 1.0012816 0.66198415 1.1796453 0.7598316 0.76000166 0.7025801 0.6524584
00000000: 90d1 443f a1d0 383f 0dfa 923f fc69 403f
00000010: 9c7b 353f 9351 633f c7fb 353f c8d8 403f
00000020: 7dc8 893f ff29 803f cb77 293f 9efe 963f
00000030: 5384 423f 788f 423f 4adc 333f 8407 273f

bn5.bias f4 [16]
-0.2067992 -0.36028683 -0.21382265 -0.53879094 -0.38541117 -0.6002006 -0.3292633 -0.3694989
-0.36091986 -0.3705146 -0.8176471 -0.16048168 -0.41400054 -0.40970954 -0.23293746 -0.6343828
00000000: 2bc3 53be 8477 b8be 53f4 5abe 34ee 09bf
00000010: 9d54 c5be bfa6 19bf 3395 a8be f62e bdbe
00000020: 7dca b8be 17b4 bdbe 5251 51bf 4f55 24be
00000030: e1f7 d3be 73c5 d1be 2887 6ebe e966 22bf

bn5.running_mean f4 [16]
-0.0609782 -0.2608512 -0.032082096 -0.21258079 -0.17385419 -0.05415407 -0.05311816 -0.03537945
-0.11948567 -0.041116856 -0.2858151 0.01386624 -0.10032365 -0.17412145 -0.117632225 -0.21194759
00000000: 47c4 79bd 4a8e 85be 8468 03bd c7ae 59be
00000010: d506 32be a8d0 5dbd 6e92 59bd 0bea 10bd
00000020: e7b4 f4bd 266a 28bd 5b56 92be 3a2f 633c
00000030: 7c76 cdbd e54c 32be 2ae9 f0bd ca08 59be

bn5.running_var f4 [16]
0.15331529 0.24140194 0.4104438 0.14333145 0.18212363 0.16766402 0.0890361 0.15220127
0.32879955 0.22988729 0.08937217 0.42868116 0.10409246 0.16468231 0.17608622 0.093412526
00000000: affe 1c3e 1232 773e b125 d23e 7bc5 123e
00000010: 9e7e 3a3e 1eb0 2b3e 8f58 b63d a6da 1b3e
00000020: 6a58 a83e 9367 6b3e c208 b73d 197c db3e
00000030: 6d2e d53d 7ba2 283e f24f 343e 114f bf3d

flat_densefc.weight f4 [32, 144]
0.013125108 0.05619266 0.015862323 0.069715634 0.15884663 0.17319737 -0.09539875 0.09541345
0.13275416 0.061106045 0.07256091 0.07040023 0.06605527 0.08235474 0.009194792 -0.02994554
0.044693332 -0.0056971256 0.011601251 -0.029378908 -0.019757934 0.034608692 -0.046072103 -0.03273714
-0.0029906933 -0.013708353 0.032768592 -0.11434032 -0.053589795 -0.062113687 -0.1637455 -0.14560176
-0.08018181 -0.16075149 -0.12601507 -0.039997306 -0.06348387 -0.018238174 0.035621367 -0.04765109
-0.05584719 0.0120026255 0.035622947 -0.057100005 -0.045160387 0.17562513 0.10612823 0.08750994
0.14587268 0.10799514 0.15417789 0.13158989 0.13882184 0.14434502 0.13808008 0.0840093
0.0021556662 0.14791717 0.13972256 0.09586212 0.18718798 0.16363637 0.094114915 0.012588506
0.11943309 0.15782239 0.0157501 0.17134775 0.14873698 0.10525643 0.133377 0.15242212
0.02849637 0.0046453727 0.06129711 -0.003035839 -0.01400833 0.0010373828 0.00034888758 -0.044147737
-0.020641576 -0.033067297 -0.05660603 -0.027048133 -0.052404396 -0.06446254 -0.039638806 -0.0072641005
-0.03000322 0.0432365 -0.0116863465 -0.111798614 -0.07609431 -0.076252356 -0.21418755 -0.20028706
-0.1442633 -0.19776471 -0.19602318 0.019842278 -0.07525396 -0.034609634 0.023399262 -0.06389137
-0.06609183 0.03087925 -0.0089856405 -0.023769721 0.0060293833 0.120935656 0.11995391 0.03495264
0.14934869 0.15411611 0.07047311 0.11838402 -0.03572007 -0.03703812 -0.03231345 0.0051596966
-0.003467377 -0.011528467 0.07341583 -0.15500335 0.07488666 0.042031266 -0.03607226 0.009751894
-0.02381348 0.051379923 0.032183766 0.044573825 0.032851487 0.03723477 -0.0010820697 -0.104569286
-0.087655075 -0.07423956 -0.10912105 -0.19291928 -0.18326399 -0.18544567 -0.20661646 -0.14978343
0.06251831 0.061023876 0.12969413 -0.022441506 -0.02886694 -0.031569093 -0.026786897 -0.04996668
-0.020716783 -0.082543716 -0.12301587 -0.14227799 -0.05913098 -0.16079585 -0.13529287 0.10000858
0.06761503 0.023669785 -0.03009513 0.13356076 0.12703013 -0.01805875 0.13806838 0.1539716
-0.050367963 0.0853571 0.19486088 -0.05198911 -0.08766171 -0.13636506 0.031969506 -0.08333458
-0.05703015 0.030204177 0.035556123 0.012021944 -0.084560044 -0.09062256 -0.004289891 -0.09115855
-0.14624721 -0.035869442 -0.036308326 -0.027021078 0.07873127 0.10095022 0.029184807 0.079329304
0.0940845 0.027300203 0.08868867 0.16056788 0.04776166 0.03545958 0.057551477 0.06081296
0.030441841 0.10506893 -0.022130936 -0.041297067 0.12431762 0.0011003591 -0.008019947 -0.028889477
0.07863623 0.076548174 -0.020952545 0.076925114 0.1312959 -0.008298657 0.04771806 0.09792139
0.14381438 0.095858626 -0.037182212 0.19098432 0.13569021 -0.05870965 0.17512012 0.11747165
-0.07652916 0.06878526 0.10947023 0.060598902 0.09538867 0.09326003 0.14649992 -0.050289396
0.043325804 -0.10381529 0.07958808 0.00015639086 0.046526328 0.12055606 0.03723307 0.037099432
0.094010405 0.040738244 0.047691662 -0.031036362 0.10678628 0.15771814 -0.0025482862 0.09978437
0.15935569 -0.058682036 0.08136437 0.088258564 -0.054479834 -0.076403596 -0.04921062 -0.0058899387
00000000: b10a 573c 462a 663d b4f1 813c 12c7 8e3d
00000010: b1a8 223e a75a 313e 6b60 c3bd 2068 c33d
00000020: b5f0 073e 554a 7a3d d09a 943d ff2d 903d
00000030: fc47 873d 9aa9 a83d c1a5 163c 5950 f5bc
00000040: 5b10 373d f4ae babb 2c13 3e3c 09ac f0bc
00000050: 64db a1bc d8c1 0d3d 1ab6 3cbd 6117 06bd
00000060: 82ff 43bb 0099 60bc 5c38 063d 422b eabd
00000070: f980 5bbd ec6a 7ebd e6ac 27be a118 15be
00000080: 5c36 a4bd 0a9c 24be 180a 01be 37d4 23bd
00000090: d503 82bd 3968 95bc b6e7 113d ca2d 43bd
000000a0: 06c0 64bd a9a6 443c 5ee9 113d b2e1 69bd
000000b0: 19fa 38bd 13d7 333e c259 d93d 6938 b33d
000000c0: a65f 153e 8e2c dd3d cfe0 1d3e 80bf 063e
000000d0: 5027 0e3e 2ecf 133e dd64 0d3e 110d ac3d
000000e0: 1446 0d3b 9977 173e 6e13 0f3e 5c53 c43d
000000f0: 35ae 3f3e 4b90 273e 52bf c03d 0540 4e3c
00000100: 5699 f43d 319c 213e 5b06 813c c975 2f3e
00000110: 824e 183e af90 d73d fb93 083e 8b14 1c3e
00000120: 3871 e93c 3638 983b ae12 7b3d edf4 46bb
00000130: 3283 65bc caf8 873a e6ea b639 42d4 34bd
00000140: 8618 a9bc 9371 07bd b9db 67bd 0c94 ddbc
00000150: fea5 56bd f004 84bd 4d5c 22bd b107 eebb
00000160: 50c9 f5bc c218 313d 1778 3fbc acf6 e4bd
00000170: 55d7 9bbd 322a 9cbd fb53 5bbe 0d18 4dbe
00000180: c2b9 13be d582 4abe 4dba 48be 468c a23c
00000190: c01e 9abd d5c2 0dbd cfaf bf3c 7bd9 82bd
000001a0: 275b 87bd 7bf6 fc3c 8238 13bc b8b8 c2bc
000001b0: 2292 c53b 1dad f73d 65aa f53d 802a 0f3d
000001c0: ddee 183e 9dd0 1d3e 3554 903d 5273 f23d
000001d0: 354f 12bd 49b5 17bd 1c5b 04bd ac12 a93b
000001e0: ef3c 63bb e5e1 3cbc 0a5b 963d 33b9 1ebe
000001f0: 2d5e 993d fa28 2c3d 82c0 13bd 68c6 1f3c
00000200: 7d14 c3bc c173 523d 20d3 033d 0b93 363d
00000210: 488f 063d 7c83 183d 3cd4 8dba 6c28 d6bd
00000220: 8184 b3bd e90a 98bd db7a dfbd a28c 45be
00000230: 8ea9 3bbe 78e5 3dbe 4493 53be d460 19be
00000240: 9a09 803d 2cf4 793d 8ace 043e 40d7 b7bc
00000250: 5c7a ecbc 984e 01bd 3270 dbbc dda9 4cbd
00000260: 3eb6 a9bc ae0c a9bd bfef fbbd 52b1 11be
00000270: 5433 72bd aba7 24be 378a 0abe 4cd1 cc3d
00000280: c079 8a3d 23e7 c13c 108a f6bc 27c4 083e
00000290: 3014 023e f2ef 93bc cc61 0d3e bbaa 1d3e
000002a0: a34e 4ebd b4cf ae3d 9c89 473e 88f2 54bd
000002b0: fc87 b3bd 48a3 0bbe 75f2 023d 52ab aabd
000002c0: 7298 69bd c06e f73c 4ca3 113d b0f7 443c
000002d0: d12d adbd 5298 b9bd 3792 8cbb 55b1 babd
000002e0: d4c1 15be d6eb 12bd 0ab8 14bd 4f5b ddbc
000002f0: dc3d a13d fdbe ce3d fa14 ef3c 6777 a23d
00000300: 60af c03d ada4 df3c 68a2 b53d e86b 243e
00000310: bba1 433d 113e 113d 19bb 6b3d 0317 793d
00000320: 2b61 f93c 612e d73d f04b b5bc 1d27 29bd
00000330: 3d9a fe3d ed39 903a 1966 03bc a0a9 ecbc
00000340: 080c a13d 4ac5 9c3d aca4 abbc ea8a 9d3d
00000350: 6f72 063e 17f7 07bc 0374 433d 028b c83d
00000360: 1444 133e 8751 c43d 604c 18bd 6591 433e
00000370: 60f2 0a3e 8879 70bd b052 333e fa94 f03d
00000380: 52bb 9cbd 49df 8c3d ee31 e03d 8e36 783d
00000390: 235b c33d 1dff be3d 1304 163e 41fc 4dbd
000003a0: 6676 313d 1c9d d4bd 13ff a23d dafc 2339
000003b0: 6492 3e3d 18e6 f63d b481 183d 93f5 173d
000003c0: 8788 c03d 25dd 263d 5558 433d f83f febc
000003d0: c4b2 da3d dd80 213e 2601 27bb bf5b cc3d
000003e0: 232e 233e 935c 70bd 5da2 a63d e8c0 b43d
000003f0: 3f26 5fbd 7d79 9cbd 1391 49bd 6300 c1bb

flat_densefc.bias f4 [32]
0.21865845 0.20746607 0.31376937 0.33076826 0.31095952 0.18712619 0.28384036 0.18266878
0.4054019 0.09145921 0.30271244 0.31866765 0.33590537 0.22642982 0.33772576 0.29436663
0.14245473 0.32498854 0.32720146 0.29777467 0.19340241 0.32891536 0.17188966 0.1999641
0.31406397 0.30162755 0.12300707 0.35275918 0.32064807 0.118682735 0.31928778 0.19665092
00000000: 00e8 5f3e fc71 543e 61a6 a03e 755a a93e
00000010: 1636 9f3e 029e 3f3e 8653 913e 860d 3b3e
00000020: d690 cf3e f74e bb3d 20fd 9a3e 6828 a33e
00000030: cafb ab3e 38dd 673e 64ea ac3e 39b7 963e
00000040: a7df 113e e664 a63e f386 a73e ec75 983e
00000050: 480b 463e 9867 a83e d803 303e 64c3 4c3e
00000060: fecc a03e ed6e 9a3e 21eb fb3d da9c b43e
00000070: fc2b a43e ef0f f33d b079 a33e dc5e 493e

densefc.weight f4 [3, 32]
0.07674964 -0.34431967 0.30244866 0.3630484 0.6313702 -0.34324166 0.58633035 -0.22179192
-0.06033483 -0.25947917 0.5771719 0.14110823 0.310939 -0.35749435 0.54087555 0.3197632
-0.064913295 0.31185237 0.62568223 0.5182976 -0.35096517 0.4573723 -0.05736148 -0.3465958
-0.022314865 0.0908195 -0.055014897 0.3657385 -0.056767892 -0.224406 0.47888124 -0.28319967
-0.4248144 0.044914562 -0.31696948 -0.30744153 -0.45395398 0.10617017 -0.44324282 0.16181377
0.3192194 -0.1468057 -0.4563628 0.29519245 -0.27825558 0.125288 -0.40626815 -0.33982563
-0.24504219 -0.36395103 -0.42493343 -0.40532723 0.0730964 -0.19589631 -0.25835663 0.05836431
0.10665747 0.22197233 -0.28148925 -0.27702853 0.26762053 -0.09218546 -0.40234712 0.14803737
0.21867378 0.10014563 -0.22630471 -0.14759241 -0.2505572 0.15152848 -0.27769077 0.20808777
-0.7330309 0.28617036 -0.2762212 -0.4539542 -0.21022241 0.13794158 -0.18799728 -0.062613465
0.24641462 -0.090229385 -0.20840874 -0.28576383 0.11576955 -0.056166455 0.29276517 0.118098386
-0.6327964 -0.5540317 0.2908532 -0.041067448 -0.5909522 0.309368 -0.24559073 0.19255643
00000000: ea2e 9d3d ab4a b0be 8dda 9a3e 7be1 b93e
00000010: 7aa1 213f 5fbd afbe bf19 163f 6c1d 63be
00000020: a821 77bd 74da 84be 8ac1 133f ad7e 103e
00000030: 6633 9f3e 8009 b7be d276 0a3f 01b8 a33e
00000040: 43f1 84bd 1dab 9f3e b62c 203f 27af 043f
00000050: b5b1 b3be b42c ea3e dff3 6abd 0175 b1be
00000060: aacd b6bc 93ff b93d 4d57 61bd 1442 bb3e
00000070: 7385 68bd b0ca 65be ec2f f53e 8cff 90be
00000080: 4681 d9be 55f8 373d d349 a2be fa68 9dbe
00000090: a86c e8be bf6f d93d b9f0 e2be 82b2 253e
000000a0: ba70 a33e 3c54 16be 63a8 e9be 7723 973e
000000b0: 8477 8ebe 7f4b 003e 6102 d0be a0fd adbe
000000c0: 57ec 7abe ca57 babe e090 d9be 0d87 cfbe
000000d0: 91b3 953d 0b99 48be 5247 84be 6a0f 6f3d
000000e0: 3b6f da3d b74c 633e 5c1f 90be afd6 8dbe
000000f0: 8f05 893e bbcb bcbd 7100 cebe 1c97 173e
00000100: 05ec 5f3e 2719 cd3d 6cbc 67be 7722 17be
00000110: 0949 80be 482a 1b3e 7c2d 8ebe f614 553e
00000120: eaa7 3bbf ec84 923e dd6c 8dbe af6c e8be
00000130: 8b44 57be 8f40 0d3e 5c82 40be 7d3b 80bd
00000140: 1d54 7c3e 2fca b8bd 1a69 55be a34f 92be
00000150: 9618 ed3d cc0e 66bd 51e5 953e 91dd f13d
00000160: f2fe 21bf 06d5 0dbf b6ea 943e 5736 28bd
00000170: a548 17bf 7c65 9e3e 237c 7bbe 832d 453e

densefc.bias f4 [3]
0.9392719 -0.39222342 -1.3153628
00000000: 2074 703f 82d1 c8be cf5d a8bf
