Models-ML/LED-162.model (torch, 55152 bytes, 34 tensors)

conv1.weight f4 [8, 1, 3, 3]
00000000: 323d b43d 20af 9d3e 05b9 b43e 54b0 203e
00000010: 7910 d63e 75c7 e3bd 9c48 e0be 72eb 2dbf
00000020: adb1 59bf 4131 26bf 0488 19bf ffac 48bf
00000030: 5046 5b3e 8660 803e 8b91 c43c 46cb 0fbd
00000040: 8ee0 ec3e 76f3 fc3e c4cd 86bd 38af 26bd
00000050: 5821 6dbd 0dde 98bc d8c4 bc3c d08a d43c
00000060: 6c66 ab3c 8437 983d 8a90 0f3d 2c0c 0080
00000070: d61f 0000 8d34 0100 540c 0100 6631 0080
00000080: d997 0080 2a4c 0080 8ae0 0080 e79e 0100
00000090: 81ae 57be c2df ee3e 4523 563f bc53 ebbe
000000a0: 3476 653e be46 cbbd 8248 9fbe e17f 203f
000000b0: 8261 0f3f 7689 933f fd7c 313e cc39 13bb
000000c0: 3b56 843e 31d1 733c e168 c4be e2fd b53e
000000d0: 5989 943e 110e cabe 868e 1a3f b6df 4a3e
000000e0: 8012 1e3d a555 303d ad95 643d f7d0 0bbf
000000f0: fbe2 223f 752c 0d3f ff7f 9dbe b549 1b39
00000100: 577c be38 c86b 05b9 7a83 1e39 6fe7 1a39
00000110: ea2c 90b8 3b9d fc38 a90e 5638 f2f4 2bb9
0.088007346 0.30797672 0.3529741 0.15692264 0.41809443 -0.11122028 -0.43805397 -0.67937386
-0.85036737 -0.64918905 -0.5997317 -0.7838897 0.21413541 0.25073642 0.023995182 -0.035105966
0.46265072 0.49404496 -0.065822154 -0.040694445 -0.057893127 -0.01866057 0.023043081 0.025945097
0.020922862 0.07432464 0.035049953 -4.366e-42 1.142e-41 1.10687e-40 9.6258e-41 -1.7721e-41
-5.4473e-41 -2.7323e-41 -8.055e-41 1.48839e-40 -0.21062662 0.4665509 0.8364757 -0.45962322
0.22408372 -0.099256024 -0.31110007 0.6269513 0.5600816 1.1526325 0.17332835 -0.002246487
0.2584704 0.014881418 -0.38361266 0.3554526 0.29011038 -0.39463857 0.60373724 0.19811901
0.03859186 0.043050427 0.055806804 -0.5461573 0.63627595 0.5514596 -0.30761716 0.0001480941
9.083066e-05 -0.0001272402 0.00015117033 0.000147728 -6.874821e-05 0.00012045583 5.103523e-05 -0.0001639908

conv1.bias f4 [8]
00000000: 62e5 8ab9 5548 50b9 244a cb35 4b7c 0100
00000010: c888 c637 4a6e 9738 c9a1 1139 1e05 8b2f
-0.00026492315 -0.00019863372 1.5146256e-06 1.36423e-40 2.3667133e-05 7.220784e-05 0.00013888547 2.528759e-10

bn1.weight f4 [8]
00000000: c28b 993f 2d68 b53f 087c 81bd 8bf2 0080
00000010: 851a 373f 688b 433f efee 573f 4458 2939
1.1995776 1.4172417 -0.06322485 -8.7008e-41 0.7152484 0.7638459 0.8434896 0.00016149977

bn1.bias f4 [8]
00000000: 58e9 123f c215 3e3f 5432 5abc 0cdb 2380
00000010: 2c2b b1be c689 67bf 9a0b e4be 5a29 673b
0.57387304 0.7425195 -0.013317663 -3.292822e-39 -0.3460325 -0.904446 -0.445401 0.003527245

bn1.running_mean f4 [8]
00000000: 1343 293f 517d 0b3f 34d6 1b3b 7786 0080
00000010: b2e8 b8bf 7b69 a5bf dcd4 8fbf ca6e 94b9
0.6611797 0.5448809 0.0023778798 -4.8237e-41 -1.4446013 -1.2922815 -1.1236835 -0.00028311304

bn1.running_var f4 [8]
00000000: 4eb1 de3c ba90 f03c f1c8 8939 0400 0000
00000010: 49fc f83c 1be1 0a3d 8ec7 c03c ab48 0e31
0.027184155 0.029365886 0.0002628039 6e-45 0.030393736 0.033906084 0.023532655 2.0705027e-09

conv2.weight f4 [16, 8, 3, 3]
00000000: 439a e2bd 1522 d8bd 0e63 bcbd eda3 3a3d
00000010: e00e c13c b852 103d feb7 6cbe 78f5 64be
00000020: 1b64 70be efe6 aabe 0b2b a1be 8194 73be
00000030: 3f3f 77be 37c2 64be cc3a 4bbe e2e9 aabd
00000040: dfe1 a2bd 0d91 8dbc 55a8 73b9 bc6b 423c
00000050: 636d 97bb c693 5b3d 6120 703d c0a0 323d
00000060: bf70 d7bb da77 48b9 8a79 99bc 87a1 0000
00000070: 6c35 0000 b7c0 0080 110e 0180 879a 0180
00000080: f0c4 0180 eb15 0180 6101 0280 eba8 0180
00000090: d029 fc3d 89b2 6fbd 7fde 54be b92d 973e
000000a0: e5d7 a83d 5381 b63c 2ea3 843e ecca f43d
000000b0: 5672 b23d d1c2 ec3d f2c4 6b3e e707 f43d
000000c0: 5333 6c3e a3c3 d23e 7c3a 9f3e a4c6 7f3d
000000d0: 0358 893e 9685 0d3e 2a5c 8b3d ef13 613e
000000e0: 2801 dd3d f7fc 893e b200 f23e 618c ac3e
000000f0: e42e 543e fdd1 bc3e 1f5e 7f3e c1a1 9038
00000100: 2682 a839 b620 8c39 2e49 0139 0491 dbb6
00000110: 36da cf38 1a86 0a39 5a26 3338 4a95 1339
00000120: e411 bbbd 33b0 2abe 7a7e 17bd 0125 92be
00000130: 1500 9dbe e538 62be 1424 cbb9 1a18 f33c
00000140: 3231 2f3e 757b 0bbf d593 32bf e5d3 40bf
00000150: 477b 8dbe 7f94 afbe f287 95be 0890 4fbe
00000160: d99a 99be 5cfb 41be 8c49 a0bb 5446 0fbc
00000170: 339d 83bc 0ed4 1bbc 0cd4 8bbc d856 b4bc
00000180: 8c1c b73b 0347 b8ba a72f 9fbb 8715 0080
00000190: 2390 0180 ae09 0180 ff87 0180 5a98 0100
000001a0: 6b51 0100 2dfc 0100 64dc 0100 ff24 0100
000001b0: 52ab 38be 0ae8 2d3e 8e5b 9c3e 431c bebe
000001c0: 8f80 063d b565 f23d e602 e8be d18b 2cbe
000001d0: 53b2 95be 5cdc 983d ea0f a73c bc8a 50be
000001e0: 0d1d abbd d1cd cfbd c56b a4be 577c 08be
000001f0: 88b8 ffbd fafa 47be 45ed db3d 4429 623d
00000200: c1b0 18be 5ab9 c13d d8dc 9ebc c357 2abe
00000210: 0b6a 1d3c 8f0d 3fbd fae4 0ebe 99f4 8436
00000220: 4afd 2034 acc0 5239 08b3 0cb8 7ade 36b7
00000230: 93b2 b139 396d 9737 8373 1837 f3bd 9e39
00000240: 98bb 87be de5a 95be 860f 46be 8a12 fbbd
00000250: 91db 5ebe 9274 62be 475e b9be adec 07bf
00000260: eca3 19bf 8c19 49be f2c8 d7be 694a fcbe
00000270: 5e38 1abe f542 81be 1f6e 24be 2198 30be
00000280: c8c4 6bbe 3c18 3ebe 058b f939 6431 2fbb
00000290: e812 89bb 0c0c f83a 4249 fcba f538 f3bb
000002a0: 60b1 8c3b a584 6d3b 72a5 16b8 7dcd 0080
000002b0: 6c68 0180 b6f3 0080 171f 0000 cc70 0100
000002c0: 4a73 0000 f428 0000 2f4e 0000 0326 0000
000002d0: 1c2c cbbd 0478 273e a937 883e 6caa 153e
000002e0: 7236 fd3e 9e37 de3e 322f 47bd 7a04 ca3e
000002f0: 4c9c b33e c344 c2be 5831 b9be 9bcb 27be
00000300: 4ce2 65be 3785 0cbe 810c 153e 591c a3be
00000310: 641f 5fbe 0f31 183d ca9f a7be 5bfe 8bbe
00000320: d0c9 56bd 5a33 8bbd 4e09 103d 02de 703e
00000330: 0fe5 64be f2e7 00be d262 983d 5310 bf39
00000340: e4c7 7539 bf2e cc39 d878 d138 fd66 ccb5
00000350: 6976 85b8 5948 42b9 e2fb acb9 7ec9 a9b9
00000360: 8af5 bebd 75f8 32bd 018f 04be 9149 75be
00000370: cb28 85be 34a7 e7be d203 e0be 72bb e8be
00000380: 5569 3cbf d97b 73be 56cb 88be 07fc 92be
00000390: 7807 59be 0d70 6cbe 4b46 8bbe 36f9 87be
000003a0: 3d55 74be bcb4 84be 13e5 5cba f518 48bb
000003b0: 2277 5abb 5c77 43bc 344f 51bc 9a88 68bc
000003c0: cc92 2abc c831 3fbc aa42 2cbc 6d19 0180
000003d0: 746e 0100 021c 0100 068d 0080 eaa8 0180
000003e0: b57b 0000 88f6 0080 b12b 0180 27aa 0180
000003f0: 49e6 6dbe fff5 b13d ed88 c43e 2ce0 47be
-0.11064579 -0.10553376 -0.09198581 0.045566488 0.023566663 0.035235137 -0.23117062 -0.22359264
-0.23475687 -0.33379313 -0.31478152 -0.23787118 -0.2414522 -0.22339712 -0.19846648 -0.08345391
-0.07953238 -0.01728108 -0.00023236994 0.011866506 -0.004621194 0.053607725 0.05862463 0.043610334
-0.0065747197 -0.00019118135 -0.018734712 5.7945e-41 1.9164e-41 -6.9133e-41 -9.6882e-41 -1.4727e-40
-1.62483e-40 -9.9698e-41 -1.84166e-40 -1.52432e-40 0.123126626 -0.058519874 -0.20788 0.2952707
0.082443036 0.022278463 0.25905746 0.11952767 0.08713214 0.11560596 0.23024347 0.1191557
0.23066454 0.41164884 0.31099308 0.062445298 0.2682496 0.1382049 0.06804688 0.2198026
0.10791236 0.2695081 0.47266155 0.3370085 0.20721012 0.36878958 0.24938248 6.896584e-05
0.00032140425 0.00026727252 0.0001232966 -6.5435906e-06 9.911174e-05 0.00013210662 4.2712643e-05 0.00014074627
-0.09134272 -0.16668777 -0.03698585 -0.28543857 -0.30664125 -0.22092016 -0.00038746058 0.029674578
0.1710861 -0.54485255 -0.69756824 -0.75323325 -0.27633116 -0.3429298 -0.2920528 -0.20269787
-0.30000952 -0.18943542 -0.00489158 -0.008744795 -0.01606617 -0.009511007 -0.017068885 -0.022014067
0.00558812 -0.0014059249 -0.0048579755 -7.723e-42 -1.43542e-40 -9.5308e-41 -1.40622e-40 1.46489e-40
1.21043e-40 1.82299e-40 1.70897e-40 1.05107e-40 -0.18034104 0.16983047 0.305386 -0.37130937
0.032837447 0.11835805 -0.4531471 -0.1685021 -0.29237613 0.07463905 0.02039333 -0.20365423
-0.0835515 -0.10146678 -0.32113472 -0.13328682 -0.124863684 -0.19529334 0.10738615 0.055215135
-0.14911176 0.09459181 -0.019392416 -0.16635041 0.009607802 -0.04664379 -0.13954535 3.9623815e-06
1.4993307e-07 0.00020098937 -3.3545337e-05 -1.0899845e-05 0.0003389312 1.8051463e-05 9.086801e-06 0.00030277632
-0.2651031 -0.2917089 -0.19341859 -0.122593954 -0.21763445 -0.2211478 -0.3620474 -0.53095514
-0.6001575 -0.19638652 -0.42145497 -0.4927552 -0.15060565 -0.25246397 -0.16057633 -0.17245533
-0.23024285 -0.18563932 0.0004759656 -0.002673232 -0.004183162 0.0018924489 -0.0019247907 -0.0074225613
0.0042936057 0.0036242392 -3.591687e-05 -7.3715e-41 -1.29295e-40 -8.7427e-41 1.1153e-41 1.323e-40
4.1358e-41 1.4691e-41 2.8047e-41 1.3636e-41 -0.099205226 0.16354376 0.26604965 0.14615792
0.494556 0.43401808 -0.048628993 0.3945654 0.35080183 -0.37943086 -0.3617046 -0.16386263
-0.22449607 -0.13722692 0.14555551 -0.31857565 -0.21789318 0.03715616 -0.32739097 -0.27342495
-0.052438557 -0.06796904 0.035165124 0.2352219 -0.22353004 -0.1258848 0.074407235 0.0003644252
0.00023439486 0.0003894474 9.9884055e-05 -1.5229158e-06 -6.36399e-05 -0.00018528233 -0.00032994064 -0.00032384315
-0.093241766 -0.04369398 -0.12945177 -0.23953845 -0.26007685 -0.45244753 -0.43752915 -0.4545551
-0.73598224 -0.23777713 -0.26717633 -0.28707907 -0.21194255 -0.23089619 -0.27202067 -0.2655732
-0.23860641 -0.2591914 -0.00084264687 -0.0030532454 -0.003333517 -0.011930313 -0.012775231 -0.014192725
-0.010410976 -0.011669584 -0.010513941 -1.00957e-40 1.31459e-40 1.01883e-40 -5.059e-41 -1.5243e-40
4.4378e-41 -8.8439e-41 -1.07509e-40 -1.52875e-40 -0.23232378 0.08689498 0.38385716 -0.19519109

conv2.bias f4 [16]
00000000: f50f 80b6 c794 b0b6 fe6e 8e37 c354 8e36
00000010: 8a6d 8537 f3e8 de36 8851 7934 b37c 3d37
00000020: b5c0 6336 8d1d aeb5 1e30 d436 fd3f f036
00000030: 38b1 b637 cfc1 0636 b135 5f37 7a4a 8a37
-3.816555e-06 -5.2625287e-06 1.6979404e-05 4.2417973e-06 1.5905844e-05 6.6432344e-06 2.3219593e-07 1.1294312e-05
3.3937806e-06 -1.2972611e-06 6.323694e-06 7.1600066e-06 2.1778615e-05 2.0080367e-06 1.3304337e-05 1.6485563e-05

bn2.weight f4 [16]
00000000: 2808 213f 470f 7a3f 833f 573f 6bbd 813f
00000010: 25b2 aa3f 4d11 523f fc7c 583f d577 4d3f
00000020: d7e7 5b3f aadc 323f d1b6 563f 479b 933f
00000030: 1c69 6e3f cafe 2a3f 389c 723f f790 b33f
0.6290307 0.9767956 0.84081286 1.0135931 1.3335615 0.8205765 0.8456571 0.80260974
0.85900635 0.69867957 0.83872706 1.1531762 0.93129134 0.6679503 0.9476962 1.4028615

bn2.bias f4 [16]
00000000: 81e7 8fbe 3f9e 4d3e 251b fb3c b69d f43b
00000010: 3b53 3a3e 9b7e 71bd 569c 9bbe 918c 88be
00000020: e216 a9be 7374 8abe bb24 c4bd e819 143e
00000030: 78c3 2a3e 418a 9cbe 6356 0d3e 3be2 67be
-0.2810631 0.20079897 0.030652592 0.0074650897 0.18195812 -0.05895863 -0.30392712 -0.26669744
-0.3302527 -0.2704197 -0.09577318 0.14463007 0.16676128 -0.3057423 0.13802485 -0.22644894

bn2.running_mean f4 [16]
00000000: c48f d9bf 1bdf 75c0 6020 76c0 0538 82c0
00000010: 2dae 93bf b130 03c0 1d43 9fbf 076a 1ec0
00000020: d0d6 09bf 0d47 79bf 83f6 98bf ef73 babf
00000030: d368 5c3f 2c70 acbe 49bf 4fc0 9da5 71c0
-1.6996999 -3.8417423 -3.845726 -4.0693383 -1.1537529 -2.049847 -1.2442356 -2.4752214
-0.538434 -0.9737404 -1.195023 -1.456663 0.8609745 -0.3367933 -3.2460501 -3.7757332

bn2.running_var f4 [16]
00000000: 6858 5840 1137 ca3f 6c08 1b40 140f 1b40
00000010: a8c9 f73f 06c2 7040 7620 8040 a4d1 0940
00000020: 602d 1140 38a9 5740 cedd f83f d1ef 843f
00000030: b1ba 3b3f 66b3 1e40 870e fe3f 191c 1440
3.380396 1.5798055 2.422389 2.4227953 1.9358416 3.7618423 4.0039625 2.1534204
2.2683945 3.3697033 1.944269 1.0385686 0.73331743 2.4796996 1.9848183 2.314215

conv3.weight f4 [16, 16, 3, 3]
00000000: b67a 71be 8369 97be 2b51 b7be a3f9 373d
00000010: b8a6 db3d 0af2 943d 1a5f ffbb 4ddd 9b3d
00000020: 0665 133c b609 48be ba4c 9ebe f4ab 04be
00000030: df00 15be c747 80be 248b 58be ef6e c03d
00000040: b554 a7be d47a fe3d 7bd8 edbd 328a 39bd
00000050: 1284 503d b96e 873e 694b 263e dc28 cfbb
00000060: e55c f43e eb59 093e 1006 30be 0084 b73d
00000070: b6f4 ac3d ccc9 18bd e28d a43e efe7 443e
00000080: 421e 9dbe 5feb b53e 08f4 663c bcd1 bcbe
00000090: afd1 30be 92b5 fcbd fc75 71bd edf5 13be
000000a0: 13a9 83bd 7964 89bd 6a05 0b3d bfbc 3fbe
000000b0: 8b0c e5bc fe74 30be e2b9 5fbe 5743 3fbe
000000c0: e21e 633e 9cae 9a3e f752 103e bde2 773e
000000d0: 0f56 b93e f721 be3d 4238 50be 64c8 adbe
000000e0: 1ea2 c0be 05c1 1d3d 482a 403e 0e50 5b3e
000000f0: 670c 03be 6b09 5e3d c88e 83bd 2237 26bd
00000100: 7092 3d3d 48ce 0abe f72c 7b3e db92 8a3e
00000110: b8dd b2be 6345 7c3e 8de9 b23d 9428 d2be
00000120: e25c 42be ca8d 94be dc42 5fbe 4af0 85bc
00000130: dbeb 9b3e 5ac5 b23e 613e 61be 855a 503e
00000140: cb6b 573e a8ef 29be eb39 b2be a478 cdbe
00000150: aa2b 673e a47a 6b3e e428 a13d 7580 f63d
00000160: d5eb 3c3d 6f46 0ebe 4224 53bd 2dd3 febd
00000170: f56e 43be 8b62 5ebd a62e 953e 7e70 523e
00000180: 2138 febc 4f7c 873e 2325 a43e fb8f 09bd
00000190: 3519 68bd 58b2 873d a57c b0bd 2e77 42bd
000001a0: b64b 0abe 5c10 82bd 7d25 69be 703a b53c
000001b0: 9b13 3abe e446 32be 5dcf cfbd 254a 92bd
000001c0: d459 ccbc ef7d 16bb 601b 56be 3826 1dbe
000001d0: 4278 07be 00a0 83be 45a0 69be 8e22 69be
000001e0: 863d 62bd 3804 863e db5e 233e 5630 7abe
000001f0: c230 173e 0705 f23d fb3a 2ebd e643 0fbe
00000200: 0e82 53bc 4fbb 2e3e c687 6dbd c303 adbe
00000210: ed05 c33e b8a2 023d 0aac ccbe 6ad2 96bd
00000220: 1857 86bd d962 b0bc 1067 c43e c816 ebbd
00000230: c2e3 09be b988 993e ee59 dcbe a404 88be
00000240: c5cc 4a3e 1249 2b3e 1ed4 50be 14e6 d63e
00000250: b3b0 123f 8920 023e 5aee a2bc 7923 903e
00000260: 6ef4 c43c 9355 a8bb c667 5e3c bb59 2b3e
00000270: b31d a3bd 92df 9bbb ae87 273e 897e 513d
00000280: 8c11 393b b544 ab3e cffb 5a3e f67e 71be
00000290: 4b1e 11be 92a6 0c3f 6a45 213d 9b37 89bc
000002a0: 9eb3 b73e de67 87bd 83c8 77be 6368 5e3e
000002b0: 9c61 2abe f1d1 0fbe b430 b23e 0121 d9bd
000002c0: 0464 88be f44a c53e 2184 66bd 0cc9 b4be
000002d0: 92a0 a3be d518 27be b554 09be 56a9 84be
000002e0: a0b8 29be 8979 23be ceaf 343e 694f e83c
000002f0: 53fb b13e e791 b03c f064 e13d a64b 93be
00000300: a357 b43e da32 1c3f 02a4 6abc b6d3 43bc
00000310: 4035 863e ec50 96be 7980 023d 0fd1 6c3c
00000320: 852e 83be 074e 623e c1f9 e93e 1b52 a0bc
00000330: da7f 05be bc89 4f3e 43df a7bd ab52 fdbd
00000340: f1e1 4cbe 196c 54be d4fb bc3e 2590 bb3d
00000350: 0892 86be c120 c33e c2df dd3d 3151 a4be
00000360: 435c 8f3d 7766 073d 21d5 60be ec9e b93d
00000370: a628 d03e 789b c43c acfa f3be 1ec0 653d
00000380: ca0c 57be 7265 f7bd 58cb 65be 4ae3 d1be
00000390: db26 d43e 05ea e63e da8b 783d 51dc 3b3e
000003a0: 3645 c13e 249a 1bbe 54e1 4f3e fa9b d83d
000003b0: 789e c0bd efd0 013a 5555 663e e41a c93d
000003c0: fd6e dbbe bded 573d 02d6 953d a161 28be
000003d0: ba6b 74be a763 28be 2015 10be 9d93 4dbe
000003e0: d225 11be c794 27bd b2f5 a6bd 5a9e 9d3e
000003f0: 5574 72bd 07db 2ebd 6f0b 303d 4ee4 05bd
-0.23581967 -0.29572687 -0.35804114 0.044915807 0.107251585 0.07272728 -0.0077933194 0.07610569
0.008996254 -0.19534954 -0.30917913 -0.1295622 -0.14551114 -0.25054762 -0.21146828 0.09396159
-0.32681814 0.12425771 -0.11613556 -0.04529781 0.050907202 0.26451662 0.16239704 -0.0063220095
0.47727123 0.13413207 -0.17189813 0.08960724 0.084451124 -0.037301823 0.32139498 0.192291
-0.30687147 0.35531136 0.0140962675 -0.36878765 -0.17267488 -0.12339319 -0.05895041 -0.14449282
-0.06428733 -0.06708617 0.03394071 -0.18724345 -0.027960083 -0.17232129 -0.21848252 -0.18678032
0.2217975 0.3021134 0.14094149 0.24207588 0.3619847 0.09283822 -0.2033396 -0.33941948
-0.37623686 0.038514156 0.18766129 0.21417257 -0.127977 0.0542082 -0.06423718 -0.040579922
0.04628223 -0.13555253 0.24528871 0.27065167 -0.34934783 0.24635844 0.087359525 -0.41046584
-0.18980744 -0.29014426 -0.21802849 -0.01634993 0.3045338 0.34916192 -0.21996452 0.2034703
0.21037214 -0.16595328 -0.34809813 -0.40131104 0.2257525 0.22996002 0.078691274 0.1203622
0.046123344 -0.13894056 -0.05154825 -0.12442622 -0.19085295 -0.054293197 0.29137152 0.20550725
-0.031032624 0.26462027 0.32059583 -0.033584576 -0.056664664 0.06625813 -0.08617524 -0.04747694
-0.13505444 -0.063507766 -0.22768207 0.022122592 -0.18171541 -0.17409855 -0.10146973 -0.07143048
-0.024945177 -0.0022963246 -0.2090888 -0.1534661 -0.13229468 -0.25708008 -0.22815044 -0.22767088
-0.055234455 0.26175094 0.15954153 -0.24432501 0.14764693 0.11817365 -0.042536717 -0.13990745
-0.012909425 0.1706364 -0.05799081 -0.33791932 0.3809046 0.031893462 -0.39975005 -0.07364352
-0.065595806 -0.02153151 0.3835988 -0.114789546 -0.13465789 0.29987124 -0.4303736 -0.2656604
0.19804676 0.16727093 -0.20393416 0.4197241 0.5730087 0.12707724 -0.019889046 0.28152063
0.024042334 -0.0051371544 0.013574546 0.16733448 -0.07964649 -0.0047568763 0.16360351 0.051146064
0.0028239219 0.33450857 0.2138512 -0.23583588 -0.14171712 0.54941666 0.03937284 -0.016750148
0.35879225 -0.06611608 -0.24197583 0.21719508 -0.16638798 -0.1404493 0.34802783 -0.10601998
-0.26638806 0.38533747 -0.05627835 -0.35309637 -0.31958443 -0.16318066 -0.1341122 -0.25910443
-0.16574335 -0.1596433 0.17645189 0.028358178 0.34762058 0.021553947 0.110055804 -0.28768653
0.35223112 0.61015093 -0.014321329 -0.011952331 0.26212502 -0.29358613 0.031860802 0.01445414
-0.2562143 0.22100078 0.4569836 -0.019570401 -0.13037053 0.20267385 -0.08196881 -0.12369283
-0.20008065 -0.20744361 0.3691088 0.09158353 -0.26283288 0.38110927 0.10833694 -0.32093194
0.070000194 0.033056702 -0.21956302 0.09063515 0.40656012 0.023999915 -0.47652185 0.05609142
-0.21000972 -0.12079896 -0.2244085 -0.4099372 0.41435894 0.45100418 0.060680248 0.18345763
0.37748116 -0.15195519 0.203008 0.10576625 -0.094052255 0.0004952093 0.22493489 0.09819582
-0.42858115 0.05271696 0.073162094 -0.16443492 -0.2386922 -0.16444264 -0.14070559 -0.20075841
-0.14174584 -0.04091337 -0.081523314 0.30784875 -0.059192974 -0.04268935 0.042979654 -0.03268843

conv3.bias f4 [16]
00000000: c7c3 1db4 e858 53b6 67bc 6836 40d4 7cb5
00000010: 7bd0 7335 ab60 4bb5 fca3 27b6 b506 e4b5
00000020: 3cba 2835 e98d ddb5 9d19 b334 839f 27b6
00000030: 7e56 c1b5 4b69 0133 e26c 8f35 6b6e 5435
-1.4692988e-07 -3.14932e-06 3.4680359e-06 -9.418618e-07 9.0827933e-07 -7.5764063e-07 -2.498039e-06 -1.6989276e-06
6.2855884e-07 -1.6507084e-06 3.3359984e-07 -2.4977787e-06 -1.4404793e-06 3.0130916e-08 1.0686019e-06 7.9136834e-07

bn3.weight f4 [16]
00000000: c7ee 463f 4546 693f 25ad cb3f 876b 783f
00000010: ed8e 433f 5755 3a3f 0260 533f f8f8 7a3f
00000020: db8f 763f 27aa 5a3f d706 3e3f b9ac 9a3f
00000030: 5759 953f fa6f 783f 01b5 9c3f 0101 803f
0.77708095 0.9112285 1.5912215 0.97039074 0.7638996 0.7278647 0.8256837 0.98036146
0.96313256 0.8541588 0.74229187 1.2083961 1.1667889 0.9704586 1.2242738 1.0000306

bn3.bias f4 [16]
00000000: 3c36 803c e56a d73c 9178 a13d 23f7 3f3e
00000010: 5581 fcbc 1fe4 4c3e 4ec0 df3d b68f d23e
00000020: 627c a4bd d5ac cabb be03 2e3e 16a3 2cbe
00000030: 32a0 f53e b60c 123e e3ac ddbc fcc9 0b3f
0.015650861 0.026296088 0.07884324 0.18746619 -0.030823389 0.20008896 0.10925351 0.41125268
-0.08031537 -0.006185154 0.16993615 -0.16859087 0.47973782 0.14262661 -0.027059978 0.5460508

bn3.running_mean f4 [16]
00000000: 403f 0ec0 6eec acbd cf1d f1bf 003e 24bf
00000010: 6dd3 f3be c909 333f f2db c43e 5fa3 2740
00000020: 1a99 01bf be74 4140 d955 febd 83fc 90bf
00000030: 1aed fa3f be28 de3f 04ae febf e740 4e40
-2.2226105 -0.08443533 -1.8837222 -0.64157104 -0.47622243 0.69936806 0.38449055 2.6193464
-0.5062424 3.0227504 -0.12418718 -1.132706 1.9603608 1.7356184 -1.9896855 3.2227113

bn3.running_var f4 [16]
00000000: b6e4 0242 a4a1 1742 6c64 7e41 b21b f541
00000010: fda3 bb41 1a18 dd41 0bcc d541 a42d e741
00000020: 2bd1 7e41 6b61 2a42 8724 1442 520b 0942
00000030: 1a5f f941 f6a7 0342 2b86 b041 e3a8 dc41
32.72335 37.907852 15.899517 30.638523 23.455072 27.636768 26.72463 28.897285
15.926066 42.595135 37.03567 34.261055 31.171436 32.914024 22.065512 27.582464

conv4.weight f4 [16, 16, 3, 3]
00000000: 5eeb a2be f802 14be fd55 81be bdd8 8b3d
00000010: 8ddc 983c 6b13 39be b1f3 0e3f 74be 72be
00000020: 0cc9 743e 2f6e 14bf dce9 42be dea0 5bbe
00000030: 4c2e 8dbe fd9a c9be addc 3dbe 7708 8c3e
00000040: 670a 48be 8d63 bc3e c546 fcbd c702 683c
00000050: 9a3d 033e ca3d 613e c0d8 703d 310f 833e
00000060: 866c 87be fe0c 003d aca5 9cbc 44f0 90be
00000070: 24d1 9ebd 59b1 c4be 6221 063c f04b a4be
00000080: 5941 99bc 38d3 b23e 1522 2ebe 6d12 9d3e
00000090: 42a2 74be 0a32 15be be76 8ebe 2767 93be
000000a0: 21c4 68bd c92b 93bd 5455 293d c960 15bd
000000b0: 31b0 8c3e d522 c7be 0cf6 86be e41e 09bf
000000c0: bf38 6dbe 1dde 9abe f5e5 b2bd e49d fc3e
000000d0: cd69 bdbd cbef c53e 92e5 99be 0f41 8abd
000000e0: 4ad7 e2be 6a3b 483e 621e 02bd 87fe 2e3a
000000f0: 2e06 793e e0fc a7be 3906 47bd d03a c9be
00000100: 3e09 3bbe b040 cabe 5f7c 12bf 0af4 1abe
00000110: e7d1 d43d 7136 aebc 7000 a13e 7f24 a03e
00000120: a7cb 753d 774f 943d 19c4 92be 77c6 ad3d
00000130: 8768 cf3d e9f0 5e3e 391b 8e3b 785c eb3c
00000140: 48b2 2a3e e670 72be 3791 a1be 92b7 d0be
00000150: 0901 f5be 9968 84be 95f3 56be d13f 873e
00000160: d6b5 ddbd f669 833e 860a 88be a9e5 84be
00000170: 38cd eabe e581 ebbd 5db2 12be a594 2abe
00000180: 34d7 083f c6fb 9fbe a209 ba3e 7f0f 0c3e
00000190: bbd1 163e 670d 3dbe 834b 0b3d a1e1 c03a
000001a0: 5f52 603e 33d9 fabd 18a2 c1bd 2a0e 843c
000001b0: d265 8ebd 8aba b2bd bb96 90be 0470 9ebe
000001c0: f396 98bd 74ac f6bd 1407 6dbe 58de 453c
000001d0: 0d9b 833e 66f0 37be aa45 babe 8bf5 10bf
000001e0: 2520 fdbe 6226 ca3b 4e27 b1be cb65 b13e
000001f0: 0846 183c 0aa1 52be 3447 cbbe e4c9 41be
00000200: 1cf0 a3be fc0a 48bd 5e11 49be 5115 e73c
00000210: 84cb 433e 0094 533e 33bd 21be 32db 173e
00000220: 3afa 143e 3eb9 9dbe 9044 b4be 4cac f73c
00000230: 5cb3 33bc e3f1 b5bc 3110 3abd 8d12 9f3e
00000240: 974d e4be bc44 df3e 2856 9a3e ac1d 1bbe
00000250: 56d6 32be 3790 a13e 7e31 4fbf 3ff6 13be
00000260: 8868 023f 6ba6 b33c cda5 7a3e 79e3 183e
00000270: 9cfa 32bd 7b1d 3abe 877f 21be c89c 64bf
00000280: e776 90be ba3e 303f 8796 14be 1d13 b2be
00000290: 2e9b cbbe 1982 f43c dffb 893e a253 77be
000002a0: 275e f83e 3ff5 163e caf9 30bf 0be8 aabe
000002b0: 8f3d c43e df3c aabe 1484 05be 8bd5 62be
000002c0: 5daf 06be 9c9d f4be bdc0 5c3e 263c a53d
000002d0: 5cf3 a9be ffac 4ebe ac18 133e 8393 bbbe
000002e0: d537 a03d 2a6d 17be 4b2d 1cbf c333 9d3e
000002f0: 63e3 593e 879d 01bf 03a3 503e 8a4b 02be
00000300: 0bd3 55be b535 a4bd 1f86 13be 50ea c8be
00000310: f638 ed3d bf39 a53d 4ee8 23bf d2bd 3f3e
00000320: fb6b a8be c4d1 3dbe 6494 65be 1f72 35bd
00000330: f433 07bf 6579 323e be54 713d aca5 9e3e
00000340: fff2 85be 1215 9e3e 9628 85bd 3b2a 19be
00000350: 3b3a cabd e2f3 2ebf ced3 4fbe f458 833e
00000360: 78f6 93bd 602f ad3d 72a3 efbe a767 193d
00000370: 953d 2dbe 9653 61be d277 4f3c f7c6 be3e
00000380: 9bec 193e 2b9a 063f 13ad b2bd b875 413e
00000390: 8260 7dbe 28b2 8fbd 8a7e a3bd 7692 65bf
000003a0: ced2 29bf 7c20 2b3f 1096 78be 414b a33e
000003b0: 4a6e bc3d a544 2fbe e684 f83c e303 96bd
000003c0: 9388 dcbe 37c3 ae3c d402 873e 4f2f 7a3d
000003d0: faa0 463e 379e 1dbf a268 023d 8081 7bbe
000003e0: da1d 78be 72b6 863d 690d ac3e 9c40 213d
000003f0: e71f a03e 2fd8 bebd 2cb5 783e f588 4dbd
-0.31820196 -0.14454257 -0.25260916 0.06828449 0.018659854 -0.18073814 0.55840594 -0.23705465
0.23904818 -0.57980627 -0.19034523 -0.21448085 -0.27574384 -0.3937606 -0.18541212 0.27350208
-0.19535218 0.367947 -0.12318186 0.014160818 0.12816468 0.21996227 0.05880046 0.25597528
-0.26449984 0.03126239 -0.019121967 -0.28308308 -0.07754734 -0.38416556 0.00818667 -0.32089186
-0.018707918 0.34926772 -0.17005189 0.3067812 -0.23890021 -0.1456987 -0.27824968 -0.28789636
-0.056827668 -0.07186086 0.04134114 -0.036469255 0.27478173 -0.38893762 -0.26359594 -0.5356276
-0.23166178 -0.30247584 -0.08735267 0.4933921 -0.092486955 0.3865951 -0.3005796 -0.0675069
-0.44304878 0.19553915 -0.031767257 0.0006675501 0.24318764 -0.32810116 -0.04858992 -0.39302683
-0.18265244 -0.39502478 -0.57221025 -0.15132156 0.10391598 -0.021266194 0.31445646 0.31277844
0.06000867 0.07241719 -0.28665236 0.0848512 0.10127359 0.21771587 0.0043367413 0.028730616
0.16669571 -0.2367588 -0.31556103 -0.40765053 -0.47852352 -0.25861052 -0.20991357 0.26415876
-0.10825698 0.2566678 -0.2657053 -0.25956467 -0.45859694 -0.11499385 -0.14325853 -0.16658266
0.53453374 -0.31246775 0.36335474 0.13677786 0.14728443 -0.18462144 0.03400756 0.001471568
0.21906422 -0.12248459 -0.09454745 0.016120035 -0.069530144 -0.08726986 -0.28239998 -0.30944836
-0.07450666 -0.120446116 -0.23147231 0.012076937 0.25704232 -0.17962798 -0.36381274 -0.5662467
-0.49438587 0.0061691264 -0.346003 0.34647974 0.0092940405 -0.20569244 -0.3970276 -0.18924671
-0.32019126 -0.0488386 -0.19635531 0.028208407 0.19120604 0.20661926 -0.1579483 0.1482971
0.14548579 -0.3080539 -0.3520856 0.030233525 -0.010968056 -0.022210067 -0.045425598 0.3106884
-0.44590446 0.43607128 0.30143857 -0.15148038 -0.17464575 0.3155534 -0.80934894 -0.14449404
0.5094075 0.02192994 0.2447731 0.14930524 -0.04369603 -0.18175308 -0.15771304 -0.8930173
-0.28215715 0.68845713 -0.14510547 -0.34780207 -0.3976683 0.029847192 0.26949975 -0.24152997
0.48509333 0.14741991 -0.6913115 -0.3338016 0.38328215 -0.33249566 -0.13038665 -0.22151773
-0.13152833 -0.47776496 0.21557899 0.08068113 -0.3319348 -0.2018318 0.1436488 -0.3663598
0.07823149 -0.14787737 -0.6100661 0.30703554 0.21278147 -0.5063099 0.20374684 -0.12724128
-0.20881288 -0.08018056 -0.14406632 -0.39241266 0.1158313 0.08067655 -0.64026344 0.18724754
-0.32894883 -0.1853705 -0.22419888 -0.044298287 -0.5281365 0.17429121 0.058918707 0.30985773
-0.26161954 0.3087545 -0.06501882 -0.14957516 -0.09874388 -0.68340886 -0.20295641 0.25653803
-0.072247446 0.08456302 -0.46804386 0.037452366 -0.16918023 -0.22004542 0.012662845 0.37261173
0.15031664 0.5257899 -0.087244175 0.18892562 -0.24743846 -0.070164025 -0.0798312 -0.89676607
-0.6633729 0.6684644 -0.24275994 0.31893352 0.092007235 -0.1711603 0.030336808 -0.0732496
-0.43072948 0.02133332 0.26369345 0.061080273 0.19397345 -0.6156954 0.031838067 -0.24561119
-0.24230137 0.065777674 0.3360398 0.039368257 0.3127434 -0.093185775 0.24287862 -0.05017944

conv4.bias f4 [16]
00000000: c3c2 33b6 1277 4db5 bf54 a135 c1e6 43b6
00000010: 54e8 47b5 7943 14b6 60e4 8335 965f 8bb4
00000020: 3567 ccb5 ff46 8735 92c3 44b6 922b b1b4
00000030: 5402 44b5 c6e6 1f35 3d3c b533 f7b4 e434
-2.6786445e-06 -7.654172e-07 1.2020099e-06 -2.919158e-06 -7.447136e-07 -2.2092993e-06 9.826726e-07 -2.5960315e-07
-1.5229222e-06 1.0078946e-06 -2.9320113e-06 -3.300052e-07 -7.301908e-07 5.9567935e-07 8.4394266e-08 4.259998e-07

bn4.weight f4 [16]
00000000: 4eb7 773f def1 973f b513 b43f 4f6d 003f
00000010: d423 963f c2b7 513f 2085 1f3f c527 573f
00000020: 29c0 833f 4646 ab3f 9772 b73f e8a8 833f
00000030: a370 ad3f 5aa0 763f e55a 453f e181 683f
0.96764076 1.1870687 1.4068514 0.5016679 1.1729684 0.8192102 0.6231251 0.8404506
1.0293018 1.3380821 1.4331845 1.0285921 1.3549999 0.9633843 0.7709182 0.9082318

bn4.bias f4 [16]
00000000: 4fd7 e93d 5212 ffbe 4830 23bf 7451 0bbd
00000010: 6363 e6be 3679 793e 3ba9 2ebd 7d5b 9dbe
00000020: 346d 15bf 7638 09bf dd25 38bd 1c7e 56be
00000030: 6e8c e9be 1f7a c7be 75e3 53be c554 a8be
0.1141802 -0.49818665 -0.63745546 -0.034013227 -0.449977 0.24362645 -0.04264186 -0.30733863
-0.58369756 -0.5360178 -0.044957984 -0.20946544 -0.45614952 -0.38960359 -0.20692237 -0.32877174

bn4.running_mean f4 [16]
00000000: b02b ecc0 0410 9ac0 919f 92c0 fed3 c33f
00000010: 75bc adc0 28a0 903e f10a 4abf 9de7 8fbf
00000020: 8fff 48c0 bc2d 7fc0 0fa8 d9c0 d898 91c0
00000030: f9ee 49c0 273d 8bc0 349e c33f 573d 54c0
-7.380333 -4.814455 -4.5819783 1.529907 -5.429255 0.2824719 -0.78922945 -1.1242558
-3.140598 -3.9871664 -6.801765 -4.5499077 -3.1552107 -4.351215 1.5282655 -3.316244

bn4.running_var f4 [16]
00000000: afd2 d842 1989 8a42 07a4 d842 a605 4042
00000010: 40bd c442 7423 a542 1267 8c42 7d2e b342
00000020: 1f05 1642 7e88 d942 9022 c342 8543 e042
00000030: 6c61 d842 e461 b542 3cae a442 90ac 8d42
108.41149 69.26777 108.320366 48.005516 98.36963 82.569244 70.20131 89.5908
37.505 108.76659 97.567505 112.131874 108.19028 90.69119 82.3403 70.837036

conv5.weight f4 [16, 16, 3, 3]
00000000: 8e16 ef3e fed5 b63c 38c1 8c3e eafa 9ebe
00000010: 7cf1 f9be 51f2 133f bc25 5ebe 9aa2 a1be
00000020: 2e10 8a3e edd0 b8be 524c 153f 604d 00bf
00000030: 3196 3a3e 802d c53d 8ca4 13be fd86 743d
00000040: 8f07 a83c 6ee2 6a3e 4e49 3dbe 2cb3 9cbe
00000050: 169b 2fbe 7a3b b63e 10a1 0cbe 697c f83e
00000060: 56e5 33bf 22c2 7abf fefc 123e 65cd 1fbf
00000070: 362a 1b3e 9c53 9abe 1c9e 963e c17b 90be
00000080: d955 ae3e db6e 93be 7d88 02bf 2798 493e
00000090: f54a 22bd c750 cbbe bd7c 9c3d 586a c53d
000000a0: 967b f8bd 0a1b 79be a8db 12be e613 083f
000000b0: 6fd4 da3e cd8d 2dbf a8ec ecbc 7dea 8a3e
000000c0: 2f94 8dbe 2f98 d5bc 1f08 eabe 6dca 3e3e
000000d0: c918 053e 04b2 0d3f 5631 afbd 0d0c b2be
000000e0: bf40 843e 7e65 09bf c249 05be b47c 543d
000000f0: 5a79 00bd 46fb 27bc 9ff0 9d3e 07cb a6bc
00000100: e7af 33bf a050 9e3e e950 f7bd 84f4 3bbf
00000110: 2989 463e 83ab 0cbf 05dd 6a3e 157c ed3e
00000120: 5abd f9be ca6c 823e b5f7 02bf d576 943e
00000130: e351 53bd 9e5a be3e 671b d73d 5489 6cbf
00000140: e46d 48bf 4c9d 11be 8219 163f 2868 88be
00000150: 932d ed3c 47ce 9ebe c17b 803e 2365 0dbe
00000160: 662a 8fbe bbcd b93d 1fe2 1a3d d8ac 293f
00000170: ce02 19be 7327 d3bc aa50 1abf fcc7 84be
00000180: 934e 893e ab78 eabd 9a3a a2be 4790 db3c
00000190: 74d4 17bf faac c13e e76f 01bf 13ee 87bd
000001a0: ed1b 2c3f fd38 ae3d 0f74 2c3e a2b9 aebd
000001b0: 588d 0a3f e45d f3bd 16bf 953d ceb5 b9be
000001c0: 14c3 37bf 0f5c ca3e dcf7 dcbd 3b54 e5be
000001d0: 9db3 dabe 2b13 423d da9a 7d3d 9b68 96be
000001e0: 8804 9ebe 8a56 ae3e e045 823e 71af b13e
000001f0: efb8 35bf 4f81 44be fae4 8f3e 932f 00bf
00000200: 2420 083f ae88 bdbe 1c75 233e ba71 563c
00000210: 52a7 9e3e b337 3e3d 19eb 55be 3c53 bd3e
00000220: a309 f4be 4fb9 4e3e 3d52 44be 8867 cd3d
00000230: 4110 00be 352c 3b3e f9b2 663c d374 cbbd
00000240: 6a20 e6bd c591 923e 4c4c b2bc 4c78 8fbe
00000250: 1445 53be 1d76 d4be 21b8 ab3d c7a9 a3be
00000260: 8c69 843e 09ad 2e3e 8973 c5bd 0230 11be
00000270: dfc8 91be 289d 403d bff6 f8bd 7b09 b23d
00000280: 0022 a3be dabf 163e 69de 84be 77b0 0e3f
00000290: fbfd 983d e10b 86bd 74fb 103e 67f1 29bf
000002a0: b3fd f8be c16e 67bf 8d46 d03e 4e50 583e
000002b0: 0088 f8be 650f 333f 5e98 253e 3a75 aebc
000002c0: 5d36 0dbf b5d9 10bf ff9e 0bbd a02e c63e
000002d0: 3107 fe3d 0f31 35be 5499 613e dd2c a23e
000002e0: 371f bdbe 5edb c3ba 58c1 8c3c b53d 8f3e
000002f0: ed9f ac3e e9c5 97bd 57d7 00bb f967 233e
00000300: c425 233e 18fc 35bf 0187 9f3e c142 d0bd
00000310: f749 253e abc9 123e 4c77 95be cb6c 183f
00000320: b6bb 6f3e 6fd5 e93c e475 d1be 0b66 95bd
00000330: 7eec efbc 5461 33be adaa 943e 2957 ffbd
00000340: e78e 0f3e 4100 08be bfa8 00bf 9c1e ff3c
00000350: 0089 413e 48ed dcbd 5162 94be b73d 8abe
00000360: 6fa0 1c3f 0117 3cbe fda4 0a3e 6848 793d
00000370: 230b 07be 83c4 73bf 1ceb 8ebe b8dc cebe
00000380: c996 bf3e ab21 863e dcdc 02be 1ac1 43bf
00000390: bd3b 35be dd92 2dbe f6df 823e 5589 f1bd
000003a0: cf1d 0bbe 5eb1 683f 722c 113f 219c 683e
000003b0: c6ef 62bf 6c4e 81be e421 d4be a816 c2be
000003c0: c279 673e aa21 013b 5811 f93e cd05 99be
000003d0: 9712 973e b0b4 2bbd 6b5e a03d c59d 0f3c
000003e0: 70e6 e7bd 76f5 c63d 2cf0 0abf c7b7 36be
000003f0: 88a2 d23d 6059 a13d 3928 ce3d 96c0 34bd
0.46696895 0.022318836 0.27491164 -0.31050807 -0.4881705 0.5779162 -0.21694082 -0.31569368
0.2696547 -0.36096898 0.5831958 -0.50118065 0.18221356 0.09627819 -0.14418238 0.059699047
0.020511417 0.22937939 -0.18484995 -0.30605447 -0.17149004 0.35592252 -0.13733315 0.48532417
-0.70271814 -0.97952473 0.14354321 -0.6242278 0.15152821 -0.30141914 0.29417503 -0.28219417
0.34049872 -0.28795514 -0.50989515 0.19686948 -0.039622266 -0.39710066 0.076409794 0.09639424
-0.12132947 -0.24326721 -0.14341605 0.5315536 0.427402 -0.67794496 -0.02892144 0.27132025
-0.27652118 -0.026073543 -0.4570932 0.18631907 0.12997736 0.55349755 -0.08554332 -0.3477482
0.25830647 -0.5367049 -0.13016418 0.05187674 -0.03136573 -0.010252779 0.30847642 -0.020360483
-0.7019028 0.30920887 -0.12075979 -0.73419976 0.1938826 -0.54949206 0.22935875 0.4638373
-0.48777276 0.25473624 -0.5115922 0.28996912 -0.051591765 0.3717851 0.105032735 -0.92397046
-0.7829268 -0.1422016 0.5863267 -0.26641965 0.028952396 -0.31016752 0.25094417 -0.13808112
-0.27962035 0.09072443 0.037813302 0.66279364 -0.14942476 -0.025775647 -0.60279334 -0.25933826
0.2681776 -0.11448797 -0.31685334 0.026802195 -0.5930855 0.37827283 -0.50561374 -0.06637206
0.6723011 0.085069634 0.16841148 -0.085315004 0.54121923 -0.118831426 0.073118374 -0.36271518
-0.7178204 0.3952336 -0.10789463 -0.44790825 -0.4271516 0.04738156 0.061915256 -0.29376683
-0.30862832 0.340504 0.25443935 0.34704164 -0.7098531 -0.19189952 0.28104383 -0.5007259
0.5317404 -0.3701834 0.15962642 0.013088638 0.3098703 0.046439838 -0.20890464 0.36977565
-0.47663602 0.20187877 -0.19171996 0.10029513 -0.125062 0.18278582 0.014080756 -0.09934392
-0.11236651 0.28626838 -0.021764897 -0.28021467 -0.2063182 -0.41496363 0.08384729 -0.31965467
0.25861776 0.17058195 -0.09641177 -0.1417847 -0.28473565 0.047024876 -0.12156438 0.086932145
-0.31861877 0.14721623 -0.25950935 0.55738014 0.07470318 -0.065452345 0.14158422 -0.66383976
-0.48631057 -0.9040337 0.40678826 0.21124384 -0.4854126 0.69945365 0.16171405 -0.021296132
-0.55161077 -0.56582195 -0.034087177 0.38707447 0.124037154 -0.17694496 0.22031146 0.31674853
-0.36937878 -0.0014942696 0.017182037 0.27976766 0.33715764 -0.07410795 -0.0019659603 0.15957631
0.15932375 -0.7108779 0.31157687 -0.10168982 0.16141497 0.14334743 -0.2919258 0.59541005
0.2341145 0.028544156 -0.40910256 -0.07294854 -0.029287573 -0.17517596 0.29036465 -0.12467796
0.14019357 -0.13281347 -0.50257486 0.031142525 0.18899918 -0.10787445 -0.2898126 -0.2700021
0.611823 -0.1836815 0.135395 0.060860068 -0.13187842 -0.9522173 -0.2791375 -0.4040277
0.37419727 0.26197562 -0.12779564 -0.76466525 -0.1769857 -0.16950555 0.25561494 -0.11793772
-0.1358559 0.9089564 0.56708443 0.22715808 -0.88647115 -0.25255144 -0.41432106 -0.3790791
0.2260504 0.0019703903 0.48646045 -0.29887238 0.2950637 -0.041920364 0.07830509 0.0087656425
-0.11323249 0.09714787 -0.54272723 -0.17843543 0.102849066 0.07878375 0.100662656 -0.044128977

conv5.bias f4 [16]
00000000: 6d15 0e36 0c56 5536 2ec7 3035 f69f a5b6
00000010: 9999 c236 a98e 1535 c8b3 8a36 5d3d fdb5
00000020: aeee 8936 82f3 f0b5 198a 40b6 75be f4b6
00000030: 74b8 c0b5 1cf5 8e35 e5e9 9ab5 8861 c635
2.117212e-06 3.178956e-06 6.5854954e-07 -4.936005e-06 5.7995317e-06 5.5714423e-07 4.13365e-06 -1.8867828e-06
4.110704e-06 -1.7952264e-06 -2.8690613e-06 -7.293939e-06 -1.4358798e-06 1.0651161e-06 -1.1541966e-06 1.4780535e-06

bn5.weight f4 [16]
00000000: 8eb3 063f 937b 373f fec9 293f a3ca 7e3f
00000010: 1a86 273f ee16 5c3f f3dc 2a3f 3fdb 173f
00000020: f1af 273f 78b2 2c3f 86f7 163f ec6d 393f
00000030: 8eea 0a3f 1998 323f 8a50 0c3f 249e 473f
0.5261773 0.71672934 0.6632384 0.9952795 0.65439 0.8597249 0.6674339 0.5931892
0.6550284 0.6745982 0.5897144 0.7243335 0.5426415 0.6976333 0.5481039 0.7797568

bn5.bias f4 [16]
00000000: 6e2c f6be a086 35bf bc73 f0be 33bc 7fbf
00000010: f1f9 15bf 2ead 63bf db32 b9be 1fd4 01bf
00000020: 226c 20bf c40a 19bf d672 23bf b4ee 36bf
00000030: 00e8 dfbe c847 0bbf c8cf 20bf cc70 25bf
-0.48080772 -0.70908546 -0.46963298 -0.99896544 -0.58584505 -0.88936126 -0.36171612 -0.50714296
-0.62665 -0.5978205 -0.638471 -0.7145798 -0.4373169 -0.54406404 -0.6281705 -0.6462524

bn5.running_mean f4 [16]
00000000: c035 95c0 5673 90c0 752e 2cc0 afc4 dec0
00000010: 9a0d d4c0 0856 c9c0 4d1d 36c0 6a6b 4ac0
00000020: af70 b9c0 ea59 97c0 0811 bcc0 e14b d5c0
00000030: e37d 94c0 3b30 93c0 a16e 62c0 b509 86c0
-4.6628113 -4.514079 -2.6903355 -6.961509 -6.6266603 -6.291752 -2.8455384 -3.162806
-5.7950053 -4.729726 -5.877079 -6.6655126 -4.640367 -4.5996375 -3.5380023 -4.188685

bn5.running_var f4 [16]
00000000: 1b30 dc41 8c37 cd41 30f0 ec41 ed7a 3442
00000010: bf80 d941 961f ef41 9ce4 0142 c802 0042
00000020: 9336 0442 d432 fb41 acc2 dd41 9fea 1d42
00000030: edcc 0c42 209f 1542 e78c 7e41 dad9 0742
27.523489 25.652122 29.61728 45.120045 27.187864 29.890423 32.47325 32.002716
33.053295 31.399818 27.720055 39.479122 35.200123 37.405396 15.9094 33.962746

flat_densefc.weight f4 [32, 64]
00000000: e980 fb3e adf6 64be fc80 f8bd 28d0 06be
00000010: ec7c 2c3f ba2c 92bd b129 25be 0cd3 5bbf
00000020: 11f7 c83d 0f2c a8be 1cb6 813e 900e e3bd
00000030: 81c2 0d3e a2c3 e8be 2254 223e 396f f13e
00000040: 9351 e6bd db78 81bc ff66 0a3e 79c5 723e
00000050: 8467 aabc c673 1a3e 5d29 a23e afe1 49bf
00000060: c91a 193e ee25 f83e 48e8 54be 4f98 9bbf
00000070: c9e4 503e aa23 b23d d5fd 133e 1245 2dbf
00000080: b779 473e e9d6 0ebf 8803 eb3d 3f81 42be
00000090: 6278 af3e 5f29 2ebe f015 18be d59a 9ebd
000000a0: b0a5 ca3d d938 a1be e890 37be a033 1d3e
000000b0: e22a 0f3e 1075 fdbe d13d 08bf f306 613e
000000c0: 6882 1ebd a424 70be c9ea a33d 4dea 8e3d
000000d0: ac0c 083e a491 71be dbdb af3e 76dc 903d
000000e0: 81bc a63e dce9 8e3d fedd 32be 44d2 603e
000000f0: 8f0c cf3d 44ed c3be 14fd d4bd 2a54 d23e
00000100: 4a5a 533e 293e 983d 05ec 913a fec8 fdbe
00000110: f038 7dbe c5d8 f63e fd4f a73e 54c6 96be
00000120: 0757 c0bd 85cb 8bbe 1891 2d3d c0c2 5bbe
00000130: 99a8 cd3e 22a9 b6bd 63ea 6b3e 370c afbe
00000140: 501a 0b3f f28e f83e 98d6 e3bc 37ff 8bbe
00000150: 2323 8d3c d4ee b6be 304a 843e ccb8 dfbe
00000160: 6280 a33e 491e e9bd 4a70 b63e 4deb cdbe
00000170: 8098 67be ee4a a3bc 6029 bebe 654b c33e
00000180: 467b 16be 07ac b53e 9c3e 0dbe 6b0d bcbe
00000190: 880f 153f 480b eabc 34a6 96bd 306c d0bd
000001a0: 7075 003f bd96 063d 1917 a2be 3d5f 79be
000001b0: c0d5 e53e 0719 96be 455f 1d3e 6732 f1be
000001c0: f3c4 e53e 77bc 613e b068 2fbf 4599 9d3e
000001d0: 86da 8b3e 956b d13e 85db 1dbf 2d73 0b3c
000001e0: 1659 87be 614a 8d3e 7b30 70be d18f 9dbe
000001f0: 07f8 77be dec5 32bf 9f7e 913e f0f3 003e
00000200: af3b f9bd 322b 273f e3f7 8dbe 1412 ea3c
00000210: b292 2dbd f006 d63d 9404 a7be 92eb 3f3e
00000220: 53de 3e3e 89f9 9cbe 92dd ff3e edef aebe
00000230: b64c b1bc 9b63 1f3d 2b13 b7bd f482 31bf
00000240: 2850 423e 7c25 e73c 25c1 31be e6e0 7d3e
00000250: 04d2 ec3d c27b 92be cbc0 5fbe cfb0 423f
00000260: 6bf6 063e 2771 35be 4242 ebbe 583e f53e
00000270: a968 31be d142 37be cc04 e23e ae55 563e
00000280: c44b 00bf 2193 203e 9071 5b3f cd1b 1cbf
00000290: 6809 c3bd 2751 263d 498a 163d 0250 d03e
000002a0: 487d bfbe 45c9 683e 2811 05bb 5afb 48bd
000002b0: e076 babe acfa 943d 9c10 193f 7fbe 0fbe
000002c0: 3555 d03e bf07 8f3e 8a38 19be 14e5 64be
000002d0: 4464 10bf e0c6 6fbe a499 7cbd aedf 583f
000002e0: 1cf4 a1bd fa07 74be 0dee 0fbe 7bf2 aa3e
000002f0: 27f2 593b 7140 d43d 4a04 783e f798 19bf
00000300: 8fc3 2e3d bb14 9e3e 975e cbbe a8fd fabe
00000310: 2117 27be b442 913d fed6 1e3e 6a01 bc3d
00000320: 96e5 033f 10e3 b7be 9b77 a4be 845f febe
00000330: 9c14 f33e 81b0 a43e 36d6 dbbe 2a59 2ebf
00000340: 47f7 a3be c1f5 40be 1556 ac3b 4343 253e
00000350: e5a7 acbd 02a6 e0be bc63 7c3e eb35 2b3f
00000360: aaaf 75be e2a5 b0be 88d7 3e3e b421 023f
00000370: 3b09 7bbe fd94 5cbd a814 45bd e81c 263e
00000380: 50bb 6cbd 83e8 323e df66 af3e cb91 d8bd
00000390: 1215 cf3a 9949 2d3e 4711 0cbf f1e9 853e
000003a0: 3f4d 87bd 07fb 623e 1d9c 31be 4c28 f2bc
000003b0: afe7 df3d 418b aa3e 88c1 82be 58ff 7bbe
000003c0: ad3f a8be ce70 47be bb13 3c3c 716e 803c
000003d0: cbf8 8d3d 3dbb 0abe a5e0 163c f76d d4be
000003e0: ede4 70be d097 c03e cb7e 023e ce77 293e
000003f0: d57b acbe f8b4 2ebe 417f 013f d3c8 0cbf
0.49121788 -0.22359724 -0.12133977 -0.13165343 0.67378116 -0.07137437 -0.16129185 -0.85868907
0.09812749 -0.32846114 0.2533425 -0.11086762 0.13843729 -0.45461756 0.15852407 0.4715517
-0.11246028 -0.015804699 0.13515852 0.23708142 -0.020801313 0.15083227 0.31672183 -0.7885999
0.14951624 0.48466438 -0.20791733 -1.2155856 0.20399775 0.08698209 0.14452298 -0.6768352
0.19480024 -0.55796677 0.11475283 -0.18994616 0.34271532 -0.1700797 -0.14852118 -0.077443756
0.09894884 -0.31488684 -0.17926371 0.15351725 0.13981202 -0.49503374 -0.53219324 0.21975307
-0.038698584 -0.23451477 0.08003766 0.06978283 0.13286084 -0.23590714 0.34347424 0.070732996
0.32565692 0.06978199 -0.17467496 0.2195521 0.10109817 -0.38266957 -0.10399833 0.41079837
0.20639911 0.07433731 0.0011132961 -0.49567407 -0.24728751 0.48212257 0.32678214 -0.29448187
-0.09391599 -0.2730371 0.0423747 -0.2146101 0.40167692 -0.08918978 0.2303863 -0.34189007
0.54337025 0.4854656 -0.027812287 -0.2734315 0.017228669 -0.35729086 0.2583785 -0.43695676
0.31933886 -0.113827296 0.35632545 -0.40218583 -0.22616768 -0.01993319 -0.37140942 0.3814346
-0.14695463 0.3548281 -0.13793415 -0.36728987 0.58226824 -0.028569832 -0.073559195 -0.10176885
0.50179195 0.0328586 -0.31658247 -0.24352737 0.4488964 -0.2931597 0.15368374 -0.47108766
0.44876823 0.2204455 -0.68519115 0.30780998 0.27315158 0.4090239 -0.61663085 0.008511347
-0.26435155 0.2759581 -0.23455994 -0.30773786 -0.24215709 -0.6983317 0.28416917 0.12593055
-0.12169587 0.65300286 -0.27728185 0.028573073 -0.042376228 0.10450542 -0.3262068 0.18742207
0.18639497 -0.3065913 0.49973732 -0.34167424 -0.021643024 0.03891335 -0.08939203 -0.69340444
0.1897589 0.028216116 -0.17358835 0.24792823 0.11563495 -0.28610045 -0.21850888 0.7605104
0.13179938 -0.17718945 -0.45948988 0.47899127 -0.17325081 -0.17896582 0.44144285 0.20931122
-0.5011561 0.15681125 0.8572016 -0.6097992 -0.095232785 0.040604737 0.036752973 0.4068604
-0.3740027 0.22733028 -0.0020304415 -0.049067833 -0.3641882 0.07274374 0.5979097 -0.14037512
0.40690008 0.27935597 -0.14962974 -0.22353011 -0.56402993 -0.23415709 -0.06166996 0.8471631
-0.07907888 -0.23831168 -0.14055653 0.33388123 0.0033255906 0.10363854 0.24220386 -0.5999903
0.042666968 0.3087519 -0.39720604 -0.4902165 -0.16317417 0.07092801 0.155117 0.09179957
0.51522195 -0.35915422 -0.32122502 -0.49682248 0.4747666 0.32165912 -0.42936867 -0.68104804
-0.32024595 -0.18843748 0.005259285 0.1613894 -0.08430461 -0.43876654 0.2464742 0.6687915
-0.23992792 -0.3450156 0.18636906 0.50832677 -0.2451524 -0.053853024 -0.048115402 0.16221964
-0.057795823 0.17471509 0.34258172 -0.10574683 0.0015799126 0.16922607 -0.54713863 0.26155046
-0.066065304 0.22166072 -0.17344709 -0.02956023 0.10932862 0.33309367 -0.25538278 -0.24609125
-0.3286108 -0.19476625 0.0114793135 0.015677663 0.06932219 -0.13547988 0.009208833 -0.41490147
-0.23524828 0.37615824 0.1274368 0.16549608 -0.33688226 -0.17061222 0.505848 -0.54993933

flat_densefc.bias f4 [32]
00000000: f898 b4bd 2b23 1d3f eb21 0c3f e63a ab3e
00000010: 6a1b 083f 1d70 ab3e 554d 193f 86a9 443f
00000020: cb94 483f 6f48 303f 0d66 383e 3c40 143f
00000030: cbf7 1a3f e261 fd3e 4abf f33e 6ace fd3e
00000040: feca f33e 88ed 0d3f 6e30 783e 68e7 a23e
00000050: d430 1a3f e93d 793e d8a7 0a3f 7bc4 8b3d
00000060: 9dd7 043f de57 453e 6da1 053f 06ae 683e
00000070: 15af a43e ea75 ff3e c660 0e3f 5177 113f
-0.08818239 0.6138179 0.54739255 0.33443373 0.5316683 0.33483973 0.59883624 0.7682117
0.7835204 0.68860525 0.1800768 0.57910514 0.6053435 0.4948874 0.4760688 0.49571544
0.47615808 0.5544057 0.24237224 0.31817174 0.60230756 0.24340023 0.5416236 0.06824585
0.518915 0.192718 0.5219944 0.22722635 0.32164827 0.4989465 0.55616415 0.5682269

densefc.weight f4 [8, 32]
00000000: 9917 0fbf d75f 953e 1c07 7a3e 3ca2 fdbe
00000010: c4b8 183e 0a1e 11bf a4dc 103d 368f 2d3d
00000020: 6b2a f03d ccfa 1c3e 14d0 d3bd 39b2 273e
00000030: 0143 be3e 9cc5 293e 5abf b23e 1b66 c13e
00000040: eec3 7cbe 35ce 723f 2087 2bbf 6cef 7f3e
00000050: 3889 933e 07e0 20be bfd4 f93d e96d a8be
00000060: 6896 433d 3951 30bf 672b b53e a4d6 3bbf
00000070: 66ef 3fbf 54f4 c43e fea4 853f 2a28 003f
00000080: 827f c83d 54df a13e de3e 58bf 4fcc 3e3d
00000090: 515d 77bf 7108 543d 78c9 4cbf 18cb 91bf
000000a0: 2ae0 4a3e ae0f 883e 9e3e f53d e9a6 55bf
000000b0: a23c edbe c2d0 2cbf fb79 bd3e ecdb 18bf
000000c0: 0f10 d53d 3fbb 56be 033f c23d 1531 993e
000000d0: 5749 ac3e e733 67bf eb7d 4d3e dbc0 5ebd
000000e0: e691 3d3e 1326 3abf 1d69 ffbe 3ff5 84bf
000000f0: 7a44 27bf 59e2 e43e 757c 9cbd 2ae9 083f
00000100: 6fb1 983e 9c0c 27bf ead3 59be fe6a 6abf
00000110: 162e 7c3e 2ba5 83bf 7d59 9bbe ceab 7abf
00000120: 6a3f 95bf 6954 06bf a91e 203e ec24 1dbf
00000130: 61bb 57bf 1ad5 a43e e737 3fbf 135a 133f
00000140: ac6b 17bf fb05 bcbe b690 2cbf ced2 b53e
00000150: daea 36bf 155d 353e 4efc 84bf 601f 4a3e
00000160: a942 8dbf 2624 32bf fa9d bcbe c7f2 09bf
00000170: a791 1bbf 75b4 19bf fe4f acbe 0062 3bbf
00000180: ba3d 4ebe 3b15 2ebf c139 a9be 3b3d b9be
00000190: 8b8b 02bf d01b adbe 76fa 3cbf 20e9 803e
000001a0: e452 bcbe 66de 5ebf 814c 77bf 1724 983e
000001b0: 3dda f13e 6756 afbe eceb 34bf 85df ebbe
000001c0: 858b e4be d9d9 1bbe 59d6 21bf 0961 32bf
000001d0: 7b2f 24bf 42ff 54bf 95fa afbe d486 2ebf
000001e0: c9ab a3be 441f 763e ef40 fcbe e0e4 d23e
000001f0: a54d e0be 624f 12bf 9641 48be 38ef 27bf
00000200: 284e 8f3e 7eba 7dbe 7783 64bf 8f74 d4be
00000210: 5ddb 83bf 38fd 5b3b 39dd 79bf 7768 38bf
00000220: ce22 dcbe 03cc 0fbf 1a92 72bf 2a2f 66bf
00000230: a9e9 33bf beeb 713e 081d 96be 6dde e5be
00000240: a2e1 173e 9f9c 12be cc18 e23d 09de 96be
00000250: 9dd6 99be 38d5 6ebf 7e8b c0be fd16 0dbf
00000260: eb59 2b3e 360e 193e 9add 06bf ebf3 453e
00000270: ecfa 71bf 3d4e b6be 0d6e d1bd 073d a5be
00000280: f3eb 1ebf a2d4 6ebf 6f75 b63e 5f93 c3be
00000290: 1c88 863e 06bb 19bf d968 4a3e 8460 213e
000002a0: fdda f5be 4105 e7be f473 7e3e fd11 803e
000002b0: 2803 75bd 4bb9 dabe 8837 efbe 2667 18be
000002c0: e3b1 21bf a8d1 04bf 92f3 fcbe f03d 4bbe
000002d0: 186a 32bf 067c 063e 6548 d1be 2a1e 7cbd
000002e0: 56a5 59bf 91e3 66be bdb9 ce3e 6cc6 c6be
000002f0: 8f48 82be 262c 0fbf b8fe e9be 7487 0abf
00000300: db94 c0be c9e7 04bf 1b59 81bf 30c2 60bf
00000310: 1c2b 56be 2d0b 81bf 8434 ea3d 970c 89bf
00000320: 1092 56bf e786 8a3e 4d64 913e 3a49 6abf
00000330: c47e 44bf 3210 45bf 4b8a e0be c666 1dbf
00000340: 6119 a53d 91bc abbd b0af 193e 99f3 20bf
00000350: 936f f2be f0a8 0a3e 0c8f 5abf ea06 e03d
00000360: 3962 54bf e695 7cbf bd04 26bf 5f72 8c3e
00000370: 5b69 583e b831 00bf ae29 80bd 4731 d1be
00000380: 3d90 04bf b488 efbe 953f 7e3e 5ade 1e3e
00000390: e00a 53bf 1502 e03d f30a 14bf bd24 0f3e
000003a0: 0c46 6a3e d478 edbe f8d5 efbe 77ec ffbe
000003b0: 1a5c a5be 13bd 68bf e519 1ebf 13b1 64bf
000003c0: b617 01bf e4a0 15bf f229 0ebf 27d0 35bf
000003d0: 1c0d fcbe 1984 2cbf ec6e 763e a98a 44bf
000003e0: 9a26 343e 3077 023e e979 8dbf 4ad6 9cbd
000003f0: a7cf 543e d2ac 2cbf 46e3 fbbe 1aba 11bf
-0.5589538 0.29174682 0.24416775 -0.49537838 0.14914232 -0.5668646 0.03536667 0.042372905
0.117268406 0.15330046 -0.10342422 0.1637658 0.37160495 0.16579288 0.34911615 0.37773213
-0.24684116 0.94845897 -0.6700306 0.24993676 0.28815627 -0.1571046 0.12198781 -0.32896355
0.04775086 -0.68873936 0.35384676 -0.7337439 -0.7497467 0.38467658 1.0440977 0.50061285
0.09789945 0.31615698 -0.8447093 0.046581563 -0.96626765 0.051765863 -0.79994917 -1.1390104
0.19812074 0.26574463 0.11974834 -0.8345781 -0.46335322 -0.6750604 0.37007126 -0.59710574
0.104034536 -0.20969866 0.09484675 0.2992026 0.33649704 -0.9031357 0.20067565 -0.05438314
0.18512687 -0.72714347 -0.49884883 -1.0387343 -0.6533886 0.4470394 -0.07640926 0.5348078
0.2982287 -0.65253615 -0.21272245 -0.9156951 0.24626955 -1.028478 -0.30341712 -0.97918403
-1.1659977 -0.5247255 0.15636696 -0.61384463 -0.8427029 0.32193834 -0.74694675 0.5755932
-0.5914867 -0.36723313 -0.6740831 0.35512394 -0.71452105 0.17711289 -1.0389497 0.19738531
-1.1035968 -0.6958641 -0.36839277 -0.53886074 -0.6076912 -0.6004098 -0.3365478 -0.7319641
-0.20140734 -0.68001145 -0.33051875 -0.36179528 -0.50994176 -0.33810282 -0.73819673 0.2517786
-0.3678199 -0.87058103 -0.9660111 0.29715034 0.47236815 -0.34245607 -0.7067249 -0.4606897
-0.44637695 -0.15219821 -0.63217694 -0.69679314 -0.6413495 -0.8320199 -0.34370866 -0.6817448
-0.31967 0.24035364 -0.4926829 0.41190243 -0.43809238 -0.5715238 -0.19556269 -0.65599394
0.27989316 -0.24778172 -0.892631 -0.41495177 -1.0301319 0.0033567678 -0.97603184 -0.720344
-0.42995304 -0.5617067 -0.94754183 -0.89915717 -0.7027841 0.23625085 -0.29319024 -0.4489626
0.14832166 -0.14317559 0.11039886 -0.29466274 -0.3004655 -0.93294096 -0.37606424 -0.551132
0.1673352 0.14946827 -0.5268189 0.19331329 -0.945235 -0.35606566 -0.10226069 -0.32273123
-0.6207878 -0.932932 0.3563647 -0.38198373 0.26275718 -0.60051 0.19766559 0.15759474
-0.48018637 -0.45121196 0.2484892 0.25013724 -0.059817463 -0.42719492 -0.46722054 -0.14883098
-0.6316206 -0.5188241 -0.4940458 -0.19847846 -0.69693136 0.13133249 -0.40875545 -0.061552204
-0.8501791 -0.22547747 0.40376082 -0.3882326 -0.25445983 -0.5592674 -0.45702147 -0.54112935
-0.37613568 -0.51916176 -1.0105318 -0.87796307 -0.20914882 -1.0081536 0.11435798 -1.0706967
-0.83816624 0.27056047 0.28396836 -0.91517985 -0.7675593 -0.7697784 -0.4385551 -0.61484945
0.08061481 -0.083855756 0.15008426 -0.628717 -0.4735075 0.13541007 -0.8537452 0.10938819
-0.82962376 -0.98666227 -0.6485098 0.27431008 0.2113394 -0.50075865 -0.0625795 -0.40857908
-0.5178259 -0.46783984 0.24828942 0.15514508 -0.8243847 0.10937897 -0.5782921 0.13978858
0.22878283 -0.46381247 -0.46842933 -0.49985096 -0.3229683 -0.90913504 -0.6175826 -0.89332694
-0.50426805 -0.58448625 -0.55532753 -0.7102074 -0.49228752 -0.67389065 0.24065751 -0.7677408
0.1759285 0.12740779 -1.1052829 -0.0765806 0.20782338 -0.674512 -0.49196833 -0.56924593

densefc.bias f4 [8]
00000000: f9b2 d9bf b89f 8fbf cc2c bc3e 857f 2e3f
00000010: fec6 913e 2699 10bf 1b31 6abd ec99 a63f
-1.7007743 -1.1220617 0.36752927 0.6816333 0.28472131 -0.56483686 -0.057175737 1.3015723
